lora_weights/lora_rank4.safetensors (safetensors, 593320 bytes, 48 tensors)

w_a_000 f4 [4, 768]
0.01580948 -0.01164661 0.021911925 0.0087138135 0.026772892 -0.023890262 0.0145525355 0.0072310995
-0.032324128 0.010606062 -0.03531381 0.027785888 -0.010373863 0.032217287 -0.0032758901 -0.027942464
0.014209329 0.03228067 -0.0069984114 0.022372529 0.006714216 -0.026551664 0.03422595 0.0027036513
0.0047588674 0.023677245 -0.030858738 -0.031553805 0.016025212 0.03069897 -0.0061213844 0.03487247
-0.03212918 0.03355458 0.010643658 -0.004960374 0.010491033 0.037890766 0.02863511 -0.011292904
0.0086657675 -0.036796406 -0.0021887214 -0.009224085 -0.024581783 -0.031993456 -0.010297549 -0.03390048
0.016104637 0.02762445 -0.027895646 0.020954458 -0.03612258 -0.01476143 0.039628197 -0.027459582
-0.0018898852 0.038186874 0.0127152875 -0.024512565 0.0031330953 0.0037773773 -0.04204467 0.011341534
0.013174668 -0.026955904 0.013621886 -0.012908443 0.028527068 0.017022764 -0.045601215 -0.036120426
0.023649158 -0.035418168 0.0074136592 -0.011865724 -0.015874563 0.018177127 -0.016920868 -0.03220727
-0.003928718 -0.01652206 -0.0217788 -0.034535762 0.027824175 0.006379489 0.008045646 -0.013433185
0.022847854 -0.027028179 -0.018624542 -0.035364192 0.0141622955 -0.0019059808 -0.0027582818 0.017154375
0.02031276 -0.038875025 -0.012901607 -0.009610785 0.0013558011 -0.02117385 -0.020454666 0.01457507
-0.028680084 0.014733923 0.036479805 0.020882864 -0.01342414 -0.024017625 0.025067385 -0.042107247
-0.02015899 -0.03267111 0.037064634 0.013451301 -0.039970066 -0.033901025 0.014952825 -0.031348217
-0.027472895 -0.0038387352 0.0020854527 0.037634965 0.0070666107 0.022484131 -0.0038479266 0.012500408
-0.010681117 -0.01799318 -0.024036534 0.020223232 -0.007144551 0.041851297 -0.00394652 0.022378659
-0.029391205 -0.024785692 -0.022943467 0.015004996 -0.021148207 -0.018370692 -0.023892792 0.017621899
0.02674244 0.0035297046 -0.0029094894 -0.037822843 -0.01169395 0.01260237 -0.014903181 -0.030752977
-0.0009745143 0.028129239 -0.0099629965 -0.031686343 -0.0014951436 -0.014779831 0.031629197 0.022792252
0.0076802266 -0.029697882 -0.012250252 0.011134123 0.0334889 -0.011840545 -0.012069789 -0.028574875
0.025561316 -0.015212441 -0.005625665 -0.018141288 -0.0055760625 0.032810677 -0.033780713 -0.018700246
0.027390003 0.026232544 0.007878628 -0.032049194 -0.015080536 0.013676962 0.013449028 -0.0046135425
-0.02166374 -0.019131333 0.0071508097 -0.024143092 -0.03644969 -0.033288877 0.023973651 -0.04421771
0.029442877 0.018025288 0.011267618 -0.02236569 -0.0047958153 -0.020013338 -0.004361506 -0.011243323
-0.036695007 -0.016316641 0.024518691 0.032885745 0.01795842 -0.023322841 -0.0322348 0.030052628
-0.026597831 -0.009981482 -0.008759257 -0.03746913 0.0074621905 0.027493352 0.023910815 -0.004176488
0.007948742 0.011285032 -0.027188592 0.0378617 0.02890479 -0.018146662 -0.002949578 -0.027405715
0.0012735383 -0.030180547 -0.024738096 -0.014808484 0.0067145447 -0.0180749 0.021292893 0.015610741
-0.009185606 -0.0061904346 -0.016397709 -0.037122324 0.044325635 0.010989356 0.020629233 0.02524825
-0.00063769956 -0.026979515 0.028558439 -0.03825848 -0.009587967 0.02181601 -0.037996095 0.026805945
-0.0006723469 -0.007446252 0.021962686 -0.011015154 -0.015695263 0.014367236 -0.0033602305 -0.013688779
00000000: e282 813c 6cd1 3ebc a380 b33c 62c4 0e3c
00000010: d352 db3c 83b5 c3bc c26d 6e3c dcf2 ec3b
00000020: 4e66 04bd 0cc5 2d3c 37a5 10bd 3b9f e33c
00000030: 23f7 29bc 46f6 033d 51b0 56bb 98e7 e4bc
00000040: 3fce 683c bc38 043d ee52 e5bb 9846 b73c
00000050: ed02 dc3b e082 d9bc 8230 0c3d be2f 313b
00000060: 46f0 9b3b c8f6 c13c 77cb fcbc 903e 01bd
00000070: 4e47 833c 687c fb3c e595 c8bb 6fd6 0e3d
00000080: e399 03bd 8770 093d bd62 2e3c a28a a2bb
00000090: 95e2 2b3c 5933 1b3d 2e94 ea3c df05 39bc
000000a0: ddfa 0d3c d4b7 16bd a770 0fbb 9e20 17bc
000000b0: bc5f c9bc 920b 03bd 0db7 28bc 3bdb 0abd
000000c0: dfed 833c ac4c e23c 6985 e4bc afa8 ab3c
000000d0: 45f5 13bd edd9 71bc 2d51 223d ebf2 e0bc
000000e0: 06b6 f7ba d769 1c3d c853 503c 93ce c8bc
000000f0: 9e54 4d3b e08d 773b 0837 2cbd d7d1 393c
00000100: 90da 573c a1d2 dcbc 552e 5f3c ef7d 53bc
00000110: 99b1 e93c 5373 8b3c 57c8 3abd 03f3 13bd
00000120: e1bb c13c a412 11bd 48ee f23b 7468 42bc
00000130: 5f0b 82bc 33e8 943c a29d 8abc c5eb 03bd
00000140: 7abc 80bb 4559 87bc 7469 b2bc 5f75 0dbd
00000150: 86ef e33c 080b d13b e3d1 033c dd16 5cbc
00000160: 6c2b bb3c 336a ddbc 7f92 98bc 0bda 10bd
00000170: f908 683c 1ad2 f9ba 4ac4 34bb 5587 8c3c
00000180: f266 a63c 6b3b 1fbd 4361 53bc 8e76 1dbc
00000190: 23b5 b13a c874 adbc 8b90 a7bc 46cc 6e3c
000001a0: 7ff2 eabc 8d66 713c d96b 153d 8a12 ab3c
000001b0: edf0 5bbc 9cc0 c4bc 1e5a cd3c a678 2cbd
000001c0: 7724 a5bc 24d2 05bd 16d1 173d d862 5c3c
000001d0: a7b7 23bd cddb 0abd b2fc 743c fd66 00bd
000001e0: d60e e1bc 4a93 7bbb 17ac 083b 1f27 1a3d
000001f0: 078f e73b a430 b83c 7f2d 7cbb 83ce 4c3c
00000200: daff 2ebc 6f66 93bc 44e8 c4bc 31ab a53c
00000210: d61c eabb 446c 2b3d cf51 81bb 7353 b73c
00000220: d3c5 f0bc 5d0b cbbc f0f3 bbbc 84d7 753c
00000230: 013f adbc 227e 96bc d1ba c3bc cd5b 903c
00000240: f612 db3c 9e52 673b 22ad 3ebb 20ec 1abd
00000250: fb97 3fbc 2c7a 4e3c 792c 74bc abed fbbc
00000260: 8c76 7fba 4a6f e63c d63b 23bc 8ac9 01bd
00000270: b2f8 c3ba 1b27 72bc 9e8d 013d d1b6 ba3c
00000280: 69aa fb3b f948 f3bc 48b5 48bc e66b 363c
00000290: a82b 093d d8fe 41bc 5dc0 45bc db15 eabc
000002a0: f765 d13c 9a3d 79bc 8057 b8bb 0a9d 94bc
000002b0: 67b7 b6bb 7d64 063d a55d 0abd 4231 99bc
000002c0: 0061 e03c a2e5 d63c 5c15 013c 0446 03bd
000002d0: 5a14 77bc 5615 603c 5059 5c3c 332d 97bb
000002e0: 2878 b1bc 50b9 9cbc 5751 ea3b bcc7 c5bc
000002f0: 454c 15bd eb59 08bd 6464 c43c a11d 35bd
00000300: 3032 f13c c5a9 933c d19b 383c 4038 b7bc
00000310: 3726 9dbb 03f3 a3bc f7ea 8ebb ea35 38bc
00000320: 814d 16bd 7aaa 85bc 6cdb c83c 34b3 063d
00000330: 891d 933c 8b0f bfbc a308 04bd ee30 f63c
00000340: b2e3 d9bc 5f89 23bc fd82 0fbc 3b79 19bd
00000350: 6485 f43b bd39 e13c 9de0 c33c ecda 88bb
00000360: 713b 023c dbe4 383c 9cba debc df14 1b3d
00000370: bdc9 ec3c 4fa8 94bc b54d 41bb f381 e0bc
00000380: dbec a63a 323d f7bc 8ca7 cabc 499f 72bc
00000390: af05 dc3b d011 94bc 6f6e ae3c 32c4 7f3c
000003a0: 397f 16bc 21d9 cabb 7d54 86bc 940d 18bd
000003b0: cc8e 353d b30c 343c a3fe a83c 6bd5 ce3c
000003c0: 4b2b 27ba 2504 ddbc 63f3 e93c edb4 1cbd
000003d0: d916 1dbc 7db7 b23c cba1 1bbd 2498 db3c
000003e0: 7040 30ba b0ff f3bb 17eb b33c e878 34bc
000003f0: 5a93 80bc 8e64 6b3c 5037 5cbb e746 60bc

w_a_001 f4 [4, 768]
-0.011734082 0.013046889 -0.026371006 0.02265741 -0.036657263 0.03508565 0.02352075 0.0025733141
-0.026169624 -0.035617027 0.00072710786 -0.024552107 -0.04328491 0.00123461 0.0024518373 -0.027229507
-0.021746226 0.03064477 0.01898354 -0.013004492 0.018878337 -0.002904028 -0.0013943898 0.015119426
0.037460558 0.02502104 0.0013710085 -0.020734625 0.0044551273 -0.00078535225 0.028096521 0.023313506
0.02985273 -0.020601975 0.044802774 0.03099809 -0.036719263 0.0052292477 0.0029217072 -0.02010056
-0.010865265 -0.0047737947 -0.0263421 0.008565226 0.010443227 0.0023341132 0.01062367 -0.031584125
0.029116845 -0.028419163 0.024853116 0.0023237509 0.0022887508 0.030893404 -0.021331904 -0.0025166841
-0.013237067 0.013406563 0.012343116 0.042075068 -0.017402204 0.021030206 -0.021929763 0.013602783
-0.006790392 0.004052843 0.00035836408 -0.024283437 0.0047001285 -0.019213293 -0.021343196 0.02231778
-0.036002908 0.0052653323 -0.01290381 -0.010549004 -0.007650656 -0.020549586 -0.013472977 0.026497355
-0.041243136 0.010146659 -0.0009841749 0.040336728 0.031729564 0.0012381129 -0.00391697 0.025419611
-0.008164383 0.019573066 -0.027234396 0.020195931 -0.012345664 -0.00850774 -0.026615068 0.020754261
0.009661457 -0.028209906 0.009848735 0.013561902 -0.03377313 0.023867406 -0.001808392 -0.018506614
-0.0008063028 -0.027531443 -0.020975005 0.029025702 0.01847467 0.005015517 -0.00047708701 0.033839993
-0.02689883 0.022617837 -0.011864117 0.029533446 -0.0004741354 -0.032199018 0.015578475 -0.016856695
0.0023669007 0.014343122 -0.015116594 -0.03483184 -0.012183232 -0.02272133 0.015122548 -0.022504844
0.0065973597 0.017764134 0.025133096 0.04454445 -0.02181879 -0.041803315 -0.001685375 -0.013746333
0.03341369 0.031872146 -0.0029520676 0.038675126 0.010977169 -0.043794632 0.007375913 -0.019754516
-0.03616682 0.034785874 -0.02029002 -0.012203181 0.020046929 0.0018319468 0.009109609 -0.034943357
-0.027000567 0.0123999445 0.00973811 -0.037323907 -0.02059024 -0.01765128 -0.027553825 -0.004446665
0.04508684 -0.004974131 0.01786297 -0.015097708 0.0239197 0.028286703 0.044572275 -0.001352976
-0.022299916 -0.040817678 -0.031012721 0.003354699 0.013778822 0.00043456006 -0.010544296 -0.019796526
0.0029968114 0.042797092 -0.02187419 -0.021419993 0.018291641 0.025925163 0.006681281 0.014276234
-0.011389346 -0.008256647 -0.015674435 -0.0103357425 0.0036399856 -0.023343489 0.014155351 -0.041277308
0.02959528 0.016997894 0.041685633 0.01722915 0.041055202 0.006373539 0.02368351 -0.022946397
0.025599616 -0.029707024 -0.04322729 -0.02804246 -0.0110937515 0.027564157 -0.026330985 0.004556268
0.03170363 -0.011571631 -0.024777694 0.033109702 0.025853945 -0.03647374 0.0338964 0.01013971
0.0326264 -0.022741636 0.0069264835 0.019737871 0.024672251 -0.013736611 -0.010442374 0.0020364353
-0.008929371 -0.009129725 -0.034720402 -0.0032200196 -0.009922659 -0.014266814 -0.0021864555 0.026272213
-0.0393552 -0.0058124885 -0.013129906 -0.026767066 -0.0044290274 -0.021844894 0.009441705 0.025665797
-0.0083057815 -0.008085959 0.029525539 -0.005981799 -0.022850385 0.013548813 0.021050131 0.010407763
-0.015373095 0.033367187 -0.02076153 -0.02407046 0.041603897 -0.018123243 -0.037636247 0.012704184
00000000: 4f40 40bc 9ec2 553c 0208 d8bc 089c b93c
00000010: ed25 16bd f8b5 0f3d 97ae c03c 0ca5 283b
00000020: ae61 d6bc 29e3 11bd 629b 3e3a 8021 c9bc
00000030: 854b 31bd a3d2 a13a 01af 203b 6a10 dfbc
00000040: 2425 b2bc be0a fb3c 5e83 9b3c cb10 55bc
00000050: bea6 9a3c 8151 3ebb f5c3 b6ba 78b7 773c
00000060: 3e70 193d edf8 cc3c 69b3 b33a a9db a9bc
00000070: 51fc 913b 19e0 4dba ad2a e63c f7fb be3c
00000080: b68d f43c 79c5 a8bc 1d83 373d b5ef fd3c
00000090: f066 16bd 1c5a ab3b 1d7a 3f3b eea9 a4bc
000000a0: 3904 32bc 7e6d 9cbb 63cb d7bc 2955 0c3c
000000b0: 121a 2b3c ecf7 183b e70e 2e3c 5b5e 01bd
000000c0: 7386 ee3c 4ecf e8bc c398 cb3c 124a 183b
000000d0: defe 153b 2a14 fd3c 3fc0 aebc f4ee 24bb
000000e0: 48e0 58bc 33a7 5b3c c83a 4a3c e856 2c3d
000000f0: 118f 8ebc 8a47 ac3c 0ca6 b3bc 35de 5e3c
00000100: f081 debb b6cd 843b d0e2 bb39 0fee c6bc
00000110: 8903 9a3b 3265 9dbc edd7 aebc c7d3 b63c
00000120: c977 13bd cf88 ac3b 806a 53bc bbd5 2cbc
00000130: 5bb2 fabb 9b57 a8bc c3bd 5cbc fb10 d93c
00000140: 90ee 28bd 2c3e 263c 6eff 80ba 2038 253d
00000150: dcf6 013d 2d48 a23a ed59 80bb ca3c d03c
00000160: e7c3 05bc b257 a03c ab1a dfbc f071 a53c
00000170: 7845 4abc 0c64 0bbc d807 dabc d704 aa3c
00000180: 164b 1e3c 7618 e7bc 975c 213c bd32 5e3c
00000190: b255 0abd 9485 c33c 9107 edba 2f9b 97bc
000001a0: 115e 53ba 9f89 e1bc c6d3 abbc 4fc7 ed3c
000001b0: 3158 973c 3559 a43b 8921 fab9 ce9b 0a3d
000001c0: ef5a dcbc 0b49 b93c b761 42bc 20f0 f13c
000001d0: 6095 f8b9 1ee3 03bd dc3c 7f3c 0d17 8abc
000001e0: 011e 1b3b 6aff 6a3c 97ab 77bc d5ab 0ebd
000001f0: 2e9c 47bc 1522 babc 90c4 773c 145c b8bc
00000200: aa2e d83b 1786 913c ece3 cd3c 3e74 363d
00000210: 52bd b2bc f439 2bbd cde7 dcba 4d38 61bc
00000220: cbdc 083d 5e8c 023d 7a77 41bb cf69 1e3d
00000230: 95d9 333c 0062 33bd a5b1 f13b 39d4 a1bc
00000240: a923 14bd a27b 0e3d 4237 a6bc daef 47bc
00000250: 7539 a43c ef1d f03a 7840 153c c420 0fbd
00000260: 4b30 ddbc 2329 4b3c 988c 1f3c f4e0 18bd
00000270: ddac a8bc 6b99 90bc 8fb8 e1bc 54b5 91bb
00000280: faac 383d 09fe a2bb 5d55 923c 615c 77bc
00000290: 3ff3 c33c 84b9 e73c 6b91 363d 5756 b1ba
000002a0: 50ae b6bc 7030 27bd 640e febc 82da 5b3b
000002b0: 91c0 613c aad5 e339 fcc1 2cbc 532c a2bc
000002c0: 2766 443b 014c 2f3d 8031 b3bc fb78 afbc
000002d0: 5ad8 953c 0261 d43c a6ee da3b dee6 693c
000002e0: 619a 3abc e346 07bc ac67 80bc 3f57 29bc
000002f0: d38c 6e3b d83a bfbc d8eb 673c 6512 29bd
00000300: cd71 f23c 2b3f 8b3c 8ebe 2a3d 2524 8d3c
00000310: 8029 283d 1fd9 d03b ec03 c23c 15fa bbbc
00000320: 49b6 d13c 255c f3bc 190f 31bd 4db9 e5bc
00000330: 91c2 35bc 3ace e13c 14b4 d7bc bf4c 953b
00000340: aadb 013d f096 3dbc 97fa cabc 0a9e 073d
00000350: a7cb d33c 7d65 15bd f4d6 0a3d 0721 263c
00000360: 43a3 053d ab4c babc 8ef7 e23b 51b1 a13c
00000370: 761d ca3c 860f 61bc 7e16 2bbc b775 053b
00000380: 7f4c 12bc d894 15bc fb36 0ebd f706 53bb
00000390: a692 22bc 5bbf 69bc a34a 0fbb d338 d73c
000003a0: eb32 21bd b076 bebb d11e 57bc 9b46 dbbc
000003b0: 6021 91bb 10f4 b2bc 62b1 1a3c 1441 d23c
000003c0: f914 08bc f87a 04bc 8bdf f13c f802 c4bb
000003d0: bb30 bbbc d7fb 5d3c 5371 ac3c 5285 2a3c
000003e0: 6fdf 7bbc 08ac 083d 1614 aabc 6a2f c5bc
000003f0: d968 2a3d 3277 94bc 7728 1abd 3625 503c

w_a_002 f4 [4, 768]
0.0028233929 0.01544691 0.0014934123 -0.012987407 0.02242984 0.03102669 0.036426283 -0.039640985
-0.020955268 0.005711449 0.0012812255 0.013796078 -0.044471588 -0.006368946 -0.01979338 -0.003720439
0.044409674 0.026059732 -0.034724265 -0.0026359041 -0.00010341841 -0.0007150345 0.010110769 0.018413423
-0.017618721 0.044909485 -0.021389246 0.022273185 0.018625552 0.0405771 -0.011213911 0.020594316
-0.0098545775 -0.01223003 -0.03111912 0.0032902258 0.043613188 -0.0021859882 0.012567661 0.023974728
-0.0227637 -0.017945582 0.007888803 0.03752591 0.019574566 0.03937478 -0.002736067 -0.010251064
0.00030303164 -0.018858468 0.044945516 -0.04647553 0.004030953 -0.028572226 -0.032801595 -0.041073494
0.00042229393 0.015502862 0.04296011 0.003955606 -0.0033422238 -0.03403856 -0.027753746 0.0070362748
-0.018300392 0.0431642 -0.0064805844 0.045533646 0.033455264 -0.014174179 -0.008998422 -0.010156985
0.002480699 0.034067906 -0.04256924 0.044713076 -0.024303908 0.00077493885 -0.039834328 0.014576029
0.048965026 -0.025334457 -0.020528387 -0.03966649 -0.006227241 -0.045671992 -0.009585923 0.0047151893
0.012399263 0.036848288 -0.033882003 -0.012532979 -0.034370475 -0.021039305 0.017268062 -0.0074848756
0.01291498 0.0033298694 -0.025038688 -0.018602462 -0.00037930402 0.008584364 -0.0034473545 -0.0018234409
0.019868456 0.018747944 -0.0002764256 0.037200205 -0.027912887 0.0036026083 -0.00655135 0.030214781
0.010550551 -0.033424508 -0.043642767 0.032800946 0.00018826491 -0.023856232 0.0089514805 0.03767858
0.005695416 -0.03341544 0.02005346 -0.0035109702 -0.050342176 -0.016139463 -0.021614539 -0.02270922
-0.034380708 -0.03186271 -0.035317305 0.0025179386 -0.012485431 -0.008607781 -0.0434171 0.031679623
-0.035970587 0.0028386435 -0.011190945 -0.006862214 0.026883781 0.025197685 0.002013421 -0.041548464
0.02969133 -0.033432454 -0.026194742 -0.024471186 -0.01285104 0.04693554 -0.037152633 0.0066874977
0.010611995 0.022279723 0.040296685 0.043306682 -0.012019244 0.013626148 -0.011108924 0.00837483
0.013917227 0.028841212 -0.0008385373 -0.012438385 0.045852963 -0.03676628 0.044769667 -0.0032240571
0.012671081 0.0087765725 0.043689426 0.0056345384 -0.0054668826 0.013817739 0.008647026 0.0015509966
-0.031087773 0.00039715847 -0.012591928 -0.037506297 -0.0041130693 -0.041043345 -0.050862994 0.0061519444
-0.01958198 -0.0030889665 -0.042252745 0.008383354 0.021642162 0.01470792 0.022999004 0.017981453
0.019704996 -0.0051074997 -0.024393525 -0.027415708 -0.020861369 0.001078586 0.033742703 -0.029170338
-0.034866925 0.01727352 0.006733409 -0.045073386 0.020553006 -0.016158156 0.020111397 -0.004477618
-0.00010031113 -0.009781811 0.0032777993 0.000456292 0.029504653 0.047847044 0.044297356 -0.009063516
0.020775521 0.013382577 0.0063069486 -0.031989574 0.014753015 0.012392238 0.0017156114 -0.03566837
0.020933453 0.019706443 -0.01933249 -0.019538743 0.005565663 -0.008537257 0.041215464 0.018663906
0.03164112 0.027688079 -0.047646903 -0.004948531 0.02613536 -0.0027297854 0.006203546 -0.019973181
-0.037285954 -0.029242823 -0.010924006 -0.0032040665 0.025207723 -0.03905897 0.025546039 -0.038224887
0.033987094 0.0073337536 0.038425334 -0.02238245 -0.016672475 -0.03384542 0.02091539 -0.008454177
00000000: ac08 393b 0915 7d3c 9abe c33a 22c9 54bc
00000010: c9be b73c af2b fe3c ba33 153d 965e 22bd
00000020: 62aa abbc 1b27 bb3b cbee a73a f208 623c
00000030: d727 36bd 97b2 d0bb ba25 a2bc 9cd2 73bb
00000040: ebe6 353d 387b d53c 083b 0ebd 22bf 2cbb
00000050: 56e2 d8b8 2771 3bba a4a7 253c bfd7 963c
00000060: 2355 90bc 02f3 373d 8038 afbc 4176 b63c
00000070: 9d94 983c 2c34 263d 8dba 37bc 69b5 a83c
00000080: 1875 21bc 7760 48bc 86ed febc d4a0 573b
00000090: bea3 323d cc42 0fbb 97e8 4d3c a666 c43c
000000a0: f07a babc 9d02 93bc 0a40 013c c5b4 193d
000000b0: d75a a03c 7347 213d 964f 33bb 14f4 27bc
000000c0: 38e0 9e39 137d 9abc ca18 383d 205d 3ebd
000000d0: 1616 843b 4d10 eabc f75a 06bd ae3c 28bd
000000e0: 5567 dd39 b7ff 7d3c f1f6 2f3d 079e 813b
000000f0: 3609 5bbb 046c 0bbd d35b e3bc 8d90 e63b
00000100: b4ea 95bc f2cc 303d 155b d4bb 7d81 3a3d
00000110: 6308 093d d13a 68bc 1e6e 13bc 7c69 26bc
00000120: 3993 223b ca8a 0b3d 155d 2ebd 0f25 373d
00000130: fd18 c7bc 4425 4b3a 5229 23bd 4cd0 6e3c
00000140: 8d8f 483d 358a cfbc 262b a8bc 5479 22bd
00000150: e20d ccbb 8e12 3bbd 460e 1dbc e081 9a3b
00000160: 4726 4b3c 3bee 163d dbc7 0abd 2057 4dbc
00000170: 0ec8 0cbd 9f5a acbc c075 8d3c b043 f5bb
00000180: 5a99 533c f039 5a3b ef1d cdbc 3164 98bc
00000190: 53dd c6b9 6fa5 0c3c 03ed 61bb 8600 efba
000001a0: 2cc3 a23c 4a95 993c 37ed 90b9 3e5f 183d
000001b0: 91a9 e4bc bd19 6c3b b5ac d6bb fd84 f73c
000001c0: 38dc 2c3c 23e8 08bd c2c2 32bd 495a 063d
000001d0: fa68 4539 256e c3bc 3ba9 123c db54 1a3d
000001e0: 9da0 ba3b a1de 08bd 2747 a43c 4e18 66bb
000001f0: 9933 4ebd e836 84bc f910 b1bc b008 babc
00000200: c9d2 0cbd 7982 02bd e1a8 10bd 0004 253b
00000210: b18f 4cbc a607 0dbc 21d6 31bd 7ec2 013d
00000220: e555 13bd 8908 3a3b 3a5a 37bc 6cdc e0bb
00000230: 603b dc3c 606b ce3c 99f3 033b b92e 2abd
00000240: 3b3b f33c 78f0 08bd 5b96 d6bc cc77 c8bc
00000250: 2b8d 52bc 7b3f 403d 5c2d 18bd cc22 db3b
00000260: efdd 2d3c f783 b63c 230e 253d 5962 313d
00000270: 5dec 44bc 3540 5f3c 3402 36bc 9536 093c
00000280: 1505 643c 6844 ec3c 49d1 5bba 5eca 4bbc
00000290: 51d0 3b3d 3d98 16bd 6660 373d b44a 53bb
000002a0: 5e9a 4f3c 9dcb 0f3c aff3 323d efa1 b83b
000002b0: 8923 b3bb cc63 623c 41ac 0d3c cf4a cb3a
000002c0: c9ab febc b539 d039 604e 4ebc 34a0 19bd
000002d0: edc6 86bb 111d 28bd b755 50bd 4096 c93b
000002e0: 636a a0bc 4270 4abb 3711 2dbd 565a 093c
000002f0: e74a b13c 7df9 703c 6868 bc3c d74d 933c
00000300: 5f6c a13c d05c a7bb eed4 c7bc e896 e0bc
00000310: 76e5 aabc 575f 8d3a ca35 0a3d a2f6 eebc
00000320: 9fd0 0ebd 3281 8d3c eea3 dc3b df9e 38bd
00000330: c75e a83c 1c5e 84bc a8c0 a43c fbb8 92bb
00000340: 215e d2b8 e443 20bc 59d0 563b 7a3a ef39
00000350: beb3 f13c 43fb 433d 2571 353d 247f 14bc
00000360: 6d31 aa3c 9942 5b3c 85aa ce3b 8007 03bd
00000370: a1b6 713c d008 4b3c 5ede e03a ff18 12bd
00000380: a27c ab3c 686f a13c 2c5f 9ebc b70f a0bc
00000390: 2a60 b63b dadf 0bbc 8cd1 283d 0ce5 983c
000003a0: 1e9a 013d 1cd2 e23c 6629 43bd 4927 a2bb
000003b0: d319 d63c 33e6 32bb 1e47 cb3b cc9e a3bc
000003c0: 28b9 18bd a58e efbc 9afa 32bc 51fb 51bb
000003d0: 6d80 ce3c 4cfc 1fbd ed45 d13c b391 1cbd
000003e0: 0d36 0b3d fc4f f03b e263 1d3d 665b b7bc
000003f0: b794 88bc 7fa1 0abd c156 ab3c 6383 0abc

w_a_003 f4 [4, 768]
-0.04338276 -0.028261162 0.0055700378 0.013310895 0.04631251 -0.012294301 0.017954296 -0.0017130945
-0.013403008 0.026736308 0.011153824 -0.022587007 0.016061695 0.0066734357 0.042758536 0.014411236
0.024234358 -0.002803312 -0.0030905004 0.0091554085 0.00010429174 -0.004293815 -0.04608841 -0.045343045
-0.0063066995 0.023206018 -0.016283778 -0.041021183 -0.024587208 0.02368799 0.002699431 -0.035693727
-0.046061326 0.003357923 0.007794632 0.0035327105 0.036775257 -0.02170871 -0.022746488 -0.005078061
-0.03451542 -0.015757037 -0.017950367 -0.013492657 -0.04282187 -0.02168596 -0.03269583 -0.017360434
-0.022600004 0.038673844 0.035991877 -0.027169758 0.014244238 -0.01764902 -0.0067327432 -0.031122435
-0.01917285 0.036743604 0.013756328 -0.004928476 0.015666699 0.02354666 -0.01171473 0.013789754
0.030688547 0.043443806 0.006520096 0.021138333 -0.017292555 0.02506839 -0.032585733 0.029534064
-0.03167868 0.023780823 -0.027445268 3.0278583e-05 -0.0071965205 -0.033325944 0.021030694 0.03912981
-0.01471988 0.00376232 0.03526174 0.008710108 0.011750986 -0.019918216 0.009260936 -0.04658693
0.003778271 -0.01953492 0.036165092 -0.006907586 -0.010347452 0.022662912 0.01266315 -0.04540698
-0.01919379 0.02911685 0.006724308 -0.01478892 -0.010903226 0.0017713194 -0.0075612506 -0.041670416
-0.01985225 0.012732028 0.013276151 0.019741936 0.0022032089 -0.0117788 -0.048679773 -0.041583955
-0.028062526 -0.011379062 -0.033763938 0.04673148 -0.008447719 0.013500217 0.042369284 -0.00025249334
-0.015410947 0.020053608 -0.040181603 -0.0027596366 -0.02763115 -0.010984154 -0.021648549 0.02332607
-0.009740159 -0.04296995 -0.037127532 -0.0030437885 -0.023170503 -0.00427183 0.010894721 0.035468943
0.014770538 -0.0019376567 0.005434164 0.02033999 -0.0033743347 -0.0036871724 0.0027288066 0.021637494
-0.012027091 -0.042821925 -0.037568387 0.039421022 -0.031966146 -0.016197423 0.014268728 0.0038287514
-0.01884171 -0.0068815434 -0.023732718 0.012825941 0.02353111 -0.0073497463 0.03763183 0.009410908
0.022970337 0.037803065 -0.006455291 -0.021014035 -0.00094886875 -0.019149195 0.0125892395 -4.0836774e-05
-0.0027850247 0.008093939 0.029841345 -0.019680575 -0.0026050538 -0.029132027 0.023472631 0.0011884227
0.046439987 -0.023075351 0.04391492 -0.027664512 0.024477903 0.005200754 0.016555903 -0.041548926
-0.0130733615 -0.018066762 -0.0036101032 -0.048549965 -0.028187653 0.04567472 -0.0014320681 0.0066126445
-0.014687337 0.020163588 -0.040527645 0.019453937 0.008978826 -0.018339513 -0.017522726 -0.0051809354
-0.033424024 0.015193391 -0.015869023 0.023979262 0.0065308535 0.039977655 0.036278047 -0.013665159
0.019950138 0.04460383 -0.024768267 -0.024085311 0.020366004 0.032694027 -0.0056305914 0.014137553
0.035069257 0.039018113 -0.0035090856 -0.00587027 -0.0069914875 0.012455113 0.021633111 -0.002942949
0.028867723 0.0317522 -0.0030642464 0.013979915 0.00603354 0.004599787 0.033999637 -0.017604996
0.0478733 -0.023971858 0.014540675 0.013850154 0.005301393 -0.01829796 0.011368358 0.019214645
-0.034531254 0.013893652 0.022933682 -0.031804416 0.015177287 0.011192877 0.022585055 -0.0016892739
-0.005055468 -0.044880282 0.040429104 -0.010158842 -0.0005348272 8.8159075e-05 -0.025994878 0.038069677
00000000: 1fb2 31bd f483 e7bc dd84 b63b f115 5a3c
00000010: 30b2 3d3d 096e 49bc e314 933c ea89 e0ba
00000020: 4a98 5bbc 1a06 db3c 87be 363c 6308 b9bc
00000030: d193 833c d6ac da3b 9323 2f3d 1b1d 6c3c
00000040: 2287 c63c c5b7 37bb fe89 4abb 9100 163c
00000050: 34b7 da38 22b3 8cbb 33c7 3cbd a1b9 39bd
00000060: 6ea8 cebb 8c1a be3c 8f65 85bc d405 28bd
00000070: 1d6b c9bc 510d c23c f0e8 303b 9633 12bd
00000080: cdaa 3cbd 9910 5c3b 1d6a ff3b 0c85 673b
00000090: a7a1 163d 77d6 b1bc d856 babc dd65 a6bb
000000a0: 0b60 0dbd e714 81bc a60c 93bc 4e10 5dbc
000000b0: fc65 2fbd c1a6 b1bc 10ec 05bd 7837 8ebc
000000c0: a523 b9bc 7768 1e3d 386c 133d 1d93 debc
000000d0: aa60 693c ad94 90bc 589e dcbb 7af4 febc
000000e0: 6110 9dbc 7680 163d 3962 613c 0e7f a1bb
000000f0: 7357 803c ede4 c03c 24ef 3fbc 6cee 613c
00000100: 8c66 fb3c 22f2 313d 88a6 d53b 4c2a ad3c
00000110: 1ea9 8dbc 395c cd3c 9e78 05bd 6cf1 f13c
00000120: 81c1 01bd 00d0 c23c e6d4 e0bc c3fe fd37
00000130: cad0 ebbb c980 08bd 9048 ac3c 9446 203d
00000140: a72b 71bc 4191 763b 9d6e 103d d7b4 0e3c
00000150: 3587 403c 872b a3bc 2ebb 173c f0d1 3ebd
00000160: de9c 773b b207 a0bc d921 143d 0859 e2bb
00000170: 5c88 29bc 92a7 b93c 1a79 4f3c abfc 39bd
00000180: 4c3c 9dbc 7686 ee3c 9557 dc3b 3a4d 72bc
00000190: 72a3 32bc 9e2b e83a 5ec4 f7bb 99ae 2abd
000001a0: 30a1 a2bc ff99 503c 3784 593c d7b9 a13c
000001b0: b663 103b defb 40bc 7164 47bd f053 2abd
000001c0: 62e3 e5bc 3f6f 3abc 0e4c 0abd 8269 3f3d
000001d0: 4d68 0abc 0430 5d3c 6a8b 2d3d 1561 84b9
000001e0: 327e 7cbc 7747 a43c 7795 24bd 05db 34bb
000001f0: b95a e2bc e2f6 33bc 4c58 b1bc 5016 bf3c
00000200: 3095 1fbc 4201 30bd 0a13 18bd 4c7a 47bb
00000210: 11d0 bdbc b5fa 8bbb c67f 323c e247 113d
00000220: 2000 723c f8f8 fdba 1211 b23b 0da0 a63c
00000230: f123 5dbb 7da4 71bb c7d5 323b 1d41 b13c
00000240: 470d 45bc 0b66 2fbd 4fe1 19bd f077 213d
00000250: efee 02bd 75b0 84bc 62c7 693c caeb 7a3b
00000260: ee59 9abc 927e e1bb 1e6b c2bc e523 523c
00000270: 50c4 c03c 24d6 f0bb d523 1a3d 3630 1a3c
00000280: 4a2c bc3c 63d7 1a3d e886 d3bb a025 acbc
00000290: 81bd 78ba c6de 9cbc 1943 4e3c 2748 2bb8
000002a0: f684 36bb 719c 043c d675 f43c 2839 a1bc
000002b0: 8db9 2abb 4aa6 eebc ad49 c03c d9c4 9b3a
000002c0: db37 3e3d 8508 bdbc 22e0 333d b0a0 e2bc
000002d0: e285 c83c 166b aa3b 3fa0 873c 352f 2abd
000002e0: a731 56bc bf00 94bc 7b97 6cbb 54dc 46bd
000002f0: cbe9 e6bc 6a15 3b3d 3bb4 bbba e2ae d83b
00000300: 28a3 70bc 1c2e a53c 5100 26bd dd5d 9f3c
00000310: ed1b 133c bf3c 96bc d28b 8fbc d6c4 a9bb
00000320: a1e7 08bd b3ed 783c c1ff 81bc 2870 c43c
00000330: c500 d63b 9cbf 233d 4a98 143d d5e3 5fbc
00000340: 796e a33c 81b2 363d d2e6 cabc 8f4e c5bc
00000350: 9bd6 a63c 2cea 053d d380 b8bb 32a1 673c
00000360: c8a4 0f3d 75d1 1f3d b0f8 65bb 655b c0bb
00000370: d918 e5bb 8810 4c3c ec37 b13c 7ede 40bb
00000380: 017c ec3c 980e 023d 86d1 48bb 030c 653c
00000390: 00b5 c53b cfb9 963b 3443 0b3d 5a38 90bc
000003a0: cb16 443d a160 c4bc 033c 6e3c c2eb 623c
000003b0: 4fb7 ad3b 9ae5 95bc 5942 3a3c 0868 9d3c
000003c0: a570 0dbd 33a2 633c 6bdf bb3c 5945 02bd
000003d0: 28aa 783c 5462 373c 4b04 b93c a06a ddba
000003e0: 57a8 a5bb 63d4 37bd fd98 253d 4671 26bc
000003f0: a533 0cba 0be2 b838 36f3 d4bc f3ee 1b3d

w_a_004 f4 [4, 768]
-0.024427695 -0.0075424705 0.023842266 0.0004891479 0.010196221 -0.009368097 -0.013256413 -0.017324569
0.021534478 0.005467402 0.012687718 -0.022572536 0.0182496 0.0010754095 -0.02322967 -0.009293672
0.016668085 0.03613169 -0.014909504 0.009739873 0.016679933 0.03542 0.014538978 0.029972367
0.031020157 -0.0119766835 -0.013380914 -0.004887529 0.044984926 -0.024652783 -0.016905976 -0.0117692705
0.018696154 0.00081927475 0.013673216 -0.031986672 -0.005937178 -0.032796413 -0.0063608703 0.038108177
0.01927651 0.02617987 0.009234571 -0.02036961 -0.024049604 0.01616477 -0.0072627314 -0.00595338
-0.02124434 0.0060535828 0.017766971 0.021296361 -0.014887831 -0.026782157 -0.023429673 0.020780444
-0.04632622 -0.027426992 -0.03304852 -0.0168749 0.025500387 -0.0062936665 0.04156516 -0.02585462
0.026475433 0.024971426 0.017641682 -0.037678503 0.03041798 -0.0147360265 0.018318878 0.023836356
-0.031616155 -0.034404933 0.0034352662 -0.02303706 0.0070937406 -0.013027133 0.03947588 -0.04628262
0.023108887 -0.018645193 0.021448659 -0.000754211 -0.0021388947 -0.010315105 0.033421688 -0.008463113
-0.015146973 0.019879954 0.00046647657 -0.02161774 0.025553279 -0.009498214 -0.016432095 -0.008306758
-0.026065115 -0.03894619 -0.037115704 -0.0034478847 -0.02069337 0.0016604933 0.0040828222 -0.023390727
-0.019193081 -0.0025077066 0.043675426 -0.009163965 -0.011552874 -0.0075421045 -0.02473222 -0.011135173
-0.036096036 0.010428134 0.007517611 0.006505084 -0.029940542 0.0022558372 -0.020830609 0.0014765016
-0.01824192 0.020651145 0.0044520483 -0.023684504 -0.019057425 0.011695015 -0.03617378 0.028244818
-0.023944557 -0.001833866 0.012461595 0.0064183036 -0.0039075 0.0082316855 0.0192102 0.017835315
-0.0030727366 0.038797405 0.032694265 -0.011562536 -0.018682256 -0.01175422 0.030145446 -0.01702719
0.015840475 -0.011078414 0.032706548 -0.030233247 0.038716722 0.023125768 0.0023459254 -0.014460782
0.007978483 0.040417574 -0.019553049 0.039472982 -0.023809884 -0.019194117 0.0041442057 -0.0226374
-0.034527782 -0.016938835 0.012012716 0.00170902 0.017593263 -0.030585963 0.03151376 0.02211854
0.039699413 -0.003582708 0.021619651 0.02398114 -0.01098728 0.039068524 -0.036425903 0.0008024639
-0.0016382969 0.0011744074 -0.018069424 -0.016264567 0.009454843 0.03897095 0.024310505 0.02540687
0.020517537 -0.009661681 -0.005583725 0.040422015 0.010280103 0.047290888 0.028929953 0.020099351
0.0019185944 -0.01884829 -0.021091567 -0.04024796 0.014788177 -0.011843529 0.027175698 0.026878767
0.0043715457 -0.020232132 0.0041074827 -0.0062647643 -0.009745576 0.010650859 -0.03200736 0.018428676
0.031024823 -0.019538103 -0.030020611 -0.010861853 0.013191441 0.0160206 -0.018158702 -0.0119396895
-0.028955359 -0.0071167215 -0.031329796 -0.005215091 0.03449836 -0.0036204902 0.036059376 0.017152306
0.02027584 -0.005544859 0.020820994 0.017026208 0.011711935 0.022696547 0.0068405783 -0.024610937
-0.016608244 -0.033215158 -0.021178387 -0.029084003 -0.029161809 -0.035156135 -0.008113264 -0.033569038
-0.016653249 -0.005007741 0.0062054466 0.0074764886 -0.03327295 -0.003428544 -0.020110749 0.029634722
0.009978517 0.020148627 0.018725688 0.017077029 0.03044908 0.0055620847 -0.03305819 0.018631408
00000000: 971c c8bc d426 f7bb db50 c33c 293a 003a
00000010: 0d0e 273c a67c 19bc 6d31 59bc 41ec 8dbc
00000020: 1369 b03c e427 b33b 25e0 4f3c 0aea b8bc
00000030: 2f80 953c c1f4 8c3a 264c bebc 7c44 18bc
00000040: 828b 883c d3fe 133d fe46 74bc fd93 1f3c
00000050: 5ba4 883c 9014 113d e534 6e3c 9c88 f53c
00000060: fc1d fe3c da39 44bc 9f3b 5bbc 9127 a0bb
00000070: 1d42 383d a2f4 c9bc 677e 8abc e6d3 40bc
00000080: ad28 993c 99c4 563a a005 603c 7504 03bd
00000090: a98c c2bb 8855 06bd d96e d0bb 5217 1c3d
000000a0: c6e9 9d3c 2b77 d63c 994c 173c 2bde a6bc
000000b0: ad03 c5bc fb6b 843c 35fc edbb 9214 c3bb
000000c0: 9c08 aebc 225d c63b 0a8c 913c b575 ae3c
000000d0: 17ec 73bc 4166 dbbc 96ef bfbc c03b aa3c
000000e0: 90c0 3dbd 92ae e0bc e35d 07bd 3b3d 8abc
000000f0: 30e6 d03c 1a3b cebb 3b40 2a3d 11cd d3bc
00000100: 02e3 d83c e090 cc3c 4a85 903c c654 1abd
00000110: 212f f93c 606f 71bc 7911 963c 7644 c33c
00000120: f17f 01bd 30ec 0cbd 3422 613b 37b8 bcbc
00000130: 9c72 e83b c26f 55bc 76b1 213d d892 3dbd
00000140: d94e bd3c cebd 98bc 19b5 af3c 3eb6 45ba
00000150: b32c 0cbb b000 29bc 2ee5 083d dea8 0abc
00000160: 022b 78bc 49db a23c 6d91 f439 b017 b1bc
00000170: 1c55 d13c 669e 1bbc 9a9c 86bc 1119 08bc
00000180: 8286 d5bc 0a86 1fbd a306 18bd e8f5 61bb
00000190: 2485 a9bc e9a4 d93a 32c9 853b e99d bfbc
000001a0: cf3a 9dbc 5658 24bb 01e5 323d 7424 16bc
000001b0: 4448 3dbc c223 f7bb 3a9b cabc 4d70 36bc
000001c0: 70d9 13bd c4da 2a3c 4b56 f63b 9a28 d53b
000001d0: de45 f5bc abd6 133b f4a4 aabc 2c87 c13a
000001e0: 1470 95bc 972c a93c 7de2 913b 0106 c2bc
000001f0: 511e 9cbc 739c 3f3c f52a 14bd ad61 e73c
00000200: 6027 c4bc 555e f0ba b82b 4c3c a250 d23b
00000210: 7c0a 80bb 31de 063c b65e 9d3c 5e1b 923c
00000220: f75f 49bb 07ea 1e3d 6cea 053d ca70 3dbc
00000230: 880b 99bc c694 40bc 95f3 f63c 9b7c 8bbc
00000240: e2c3 813c 3c82 35bc 4df7 053d b7ab f7bc
00000250: 6d95 1e3d 4072 bd3c 19be 193b eaec 6cbc
00000260: 2fb8 023c e68c 253d b72d a0bc 6cae 213d
00000270: f20c c3bc fb3c 9dbc 1ecc 873b 1272 b9bc
00000280: 016d 0dbd 50c3 8abc fcd0 443c 3201 e03a
00000290: bf1f 903c 6a8f fabc 9314 013d f131 b53c
000002a0: da9b 223d decb 6abb b21b b13c 1974 c43c
000002b0: fe03 34bc 5106 203d 5433 15bd 715c 523a
000002c0: 1fbc d6ba 93ee 993a 5406 94bc 453d 85bc
000002d0: 7ce8 1a3c 01a0 1f3d d326 c73c 1122 d03c
000002e0: 6514 a83c 074c 1ebc aef7 b6bb 8e91 253d
000002f0: e16d 283c 17b4 413d 82fe ec3c 65a7 a43c
00000300: 5879 fb3a bb67 9abc 39c8 acbc 0bdb 24bd
00000310: 1c4a 723c 5c0b 42bc 929f de3c dc30 dc3c
00000320: 2f3f 8f3b dbbd a5bc 1098 863b a748 cdbb
00000330: e9ab 1fbc f180 2e3c 261a 03bd bcf7 963c
00000340: c527 fe3c 5f0e a0bc c9ed f5bc eaf5 31bc
00000350: ea20 583c a23d 833c 8fc1 94bc b09e 43bc
00000360: ca33 edbc 6333 e9bb ac53 00bd 5be3 aabb
00000370: 274e 0d3d bf45 6dbb ffb2 133d fe82 8c3c
00000380: 8519 a63c a6b1 b5bb ca90 aa3c 8c7a 8b3c
00000390: 6ae3 3f3c 1cee b93c ee26 e03b e09c c9bc
000003a0: 030e 88bc 9e0c 08bd 4c7e adbc 9341 eebc
000003b0: bfe4 eebc e1ff 0fbd 7fed 04bc b07f 09bd
000003c0: 656c 88bc fa17 a4bb 0f57 cb3b 55fd f43b
000003d0: 3849 08bd 6cb1 60bb 4cbf a4bc 84c4 f23c
000003e0: ef7c 233c bc0e a53c 9d66 993c 20e5 8b3c
000003f0: 5970 f93c 2642 b63b 0668 07bd e5a0 983c

w_a_005 f4 [4, 768]
-0.019062666 -0.008199748 0.003057811 -0.0037184944 -0.015151596 0.003938067 0.024395881 -0.0014790007
0.03388113 -0.009572742 0.0147058815 0.019790143 0.0026346087 0.007424705 0.032092933 0.042375807
0.036723085 -0.047805637 0.0028306276 0.015977943 0.0077010547 -0.010007778 0.0013575972 -0.02463887
0.0138844075 -0.024543613 -0.017906928 0.01761247 0.0036020305 -0.01234433 -0.047455642 0.018902127
0.0029882826 -0.008926996 -0.0005973389 -0.0109741455 0.026277684 -0.015623325 -0.0054009235 -0.039033197
-0.0042803762 -0.0011315449 0.014306665 -0.042798135 0.04384253 0.002450046 0.011408188 0.015817763
-0.029698942 0.013617799 -0.004117822 -0.014506507 -0.03165317 -0.0016918739 -0.010864444 0.0030723547
-0.019874275 0.015454356 -0.022574257 -0.0036162916 -0.03621932 -0.033809163 -0.00094114995 0.00042702263
-0.036595985 -0.03054705 0.00887516 0.021869073 0.0149128055 0.043693025 -0.008952173 0.02184827
-0.008892723 0.029184759 0.01800507 0.03599956 0.023765769 0.0004052249 -0.013198807 -0.0043743188
-0.008798805 -0.017507665 -0.012277052 0.0044050687 -0.020857612 -0.0055047167 0.013633971 0.013729674
0.035867285 0.004084519 0.010973 0.0347754 -0.03655898 0.002351643 -0.038694788 -0.02133086
0.020933386 -0.0031600567 0.01516851 0.03328596 -0.028968021 0.042137176 -0.034539234 0.012021796
0.019467672 -0.0026735093 -0.002837722 -0.015979253 -0.011285304 0.024055772 -0.00483315 -0.04448953
0.03390877 -0.04410785 -0.046416152 -0.04593414 -0.015734069 -0.014647345 0.03225784 0.030294549
-0.027713727 -0.04148662 -0.033610098 0.044951607 -0.010883361 -0.0153867025 -0.028684324 -0.029817047
-0.018885393 0.021869617 0.011085084 -0.04533071 -0.043397717 0.03143187 0.010497091 -0.0076661557
-0.0471825 -0.010795084 0.03722242 0.010660071 -0.01720007 0.018827926 -0.027777238 -0.04341967
-0.007982758 0.0155871045 -0.031029286 -1.578969e-05 0.013046248 -0.0100369975 -0.017827742 -0.015708674
0.00053542876 -0.034147672 0.010697471 -0.038823947 -0.016180687 -0.00807926 0.0013384485 0.030287573
-0.019967498 -0.004469057 0.045099724 -0.045401644 0.03754366 -0.0220396 -0.02085012 0.018424207
-0.043428853 -0.025386529 -0.04095344 0.007662653 -0.03902414 -0.021867486 0.0009086645 0.0102736205
0.047912687 0.0062317625 -0.003028809 -0.019572727 -0.015511495 -0.01019106 0.019621508 0.038900692
0.032231417 0.011996578 0.011103292 0.018889181 0.010032597 -0.0357117 -0.04180764 -0.04355197
-0.036392413 -0.023337018 0.031182887 0.03931925 -0.018529199 0.010051204 0.011387869 0.02274032
-4.9840433e-05 0.01363851 -0.031915758 0.024550822 -0.0068460507 0.008853255 -0.005423186 -0.0032221414
-0.0013329537 -0.007963761 0.047418796 -0.017064566 0.024702296 -0.032296427 0.032956887 0.010535988
-0.012569733 0.017180761 -0.034781277 -0.012849116 -0.011102124 0.01806983 0.0060494356 -0.005628254
0.00041692975 -0.01780445 -0.008687448 -0.0063946093 -0.019730799 -0.037108935 0.015610231 0.035578936
-0.009551855 0.0010238681 -0.04322827 -0.0045529534 0.044516787 0.009860291 0.01643147 0.009917781
-0.048577767 0.030681241 0.031885378 0.007949594 0.0020383392 0.002078273 0.02342673 -0.021101631
0.019960837 -0.018664746 -0.008629095 0.00795536 0.011405146 -0.011092839 0.014990242 0.01241675
00000000: 4f29 9cbc 3c58 06bc 8e65 483b fcb1 73bb
00000010: 663e 78bc e60a 813b dfd9 c73c 07db c1ba
00000020: f1c6 0a3d fdd6 1cbc f0f0 703c f01e a23c
00000030: 66a9 2c3b f14a f33b e173 033d 4192 2d3d
00000040: f26a 163d d8cf 43bd 0d82 393b 2de4 823c
00000050: 2159 fc3b aaf7 23bc 67f1 b13a 75d7 c9bc
00000060: 6d7b 633c b00f c9bc 8db1 92bc 0748 903c
00000070: 0b10 6c3b df3f 4abc d960 42bd a2d8 9a3c
00000080: 10d7 433b 8942 12bc bc96 1cba e7cc 33bc
00000090: 4c44 d73c f9f8 7fbc 3bfa b0bb 46e1 1fbd
000000a0: 6642 8cbb 5950 94ba 8166 6a3c 194d 2fbd
000000b0: 3a94 333d f390 203b 69e9 3a3c 4194 813c
000000c0: 324b f3bc 301d 5f3c cbee 86bb b3ac 6dbc
000000d0: c1a6 01bd dec1 ddba c800 32bc 8f59 493b
000000e0: 60cf a2bc 4434 7d3c a6ed b8bc 4eff 6cbb
000000f0: b65a 14bd 7a7b 0abd 81b7 76ba 02e2 df39
00000100: ace5 15bd cf3d fabc 1e69 113c c526 b33c
00000110: d754 743c 75f7 323d 23ac 12bc 25fb b23c
00000120: c9b2 11bc e014 ef3c 5e7f 933c 4674 133d
00000130: 6eb0 c23c 5e74 d439 cf3f 58bc 7256 8fbb
00000140: dd28 10bc 3c6c 8fbc b025 49bc 6558 903b
00000150: 95dd aabc e960 b4bb 0561 5f3c 6df2 603c
00000160: 93e9 123d 6ed7 853b 19c8 333c a670 0e3d
00000170: debe 15bd 061e 1a3b 6d7e 1ebd 0ebe aebc
00000180: 7e7c ab3c f418 4fbb 5885 783c dc56 083d
00000190: 584e edbc 0898 2c3d 0379 0dbd 11f7 443c
000001a0: ab7a 9f3c 0b36 2fbb 13f9 39bb ece6 82bc
000001b0: ffe5 38bc 9c10 c53c 675f 9ebb a73a 36bd
000001c0: ece3 0a3d 6faa 34bd dd1e 3ebd 7025 3cbd
000001d0: bce4 80bc 6bfb 6fbc cc20 043d 462c f83c
000001e0: e607 e3bc e0ed 29bd beaa 09bd 2d1f 383d
000001f0: 2050 32bc 8218 7cbc 63fb eabc e142 f4bc
00000200: 8ab5 9abc e927 b33c 369e 353c b2ac 39bd
00000210: cec1 31bd b4be 003d fefb 2b3c 6034 fbbb
00000220: 7042 41bd dddd 30bc 8976 183d 94a7 2e3c
00000230: 29e7 8cbc 063d 9a3c 178d e3bc d3d8 31bd
00000240: 1dca 02bc 0e61 7f3c 2131 febc 1a74 84b7
00000250: eebf 553c 3872 24bc 7c0b 92bc 7aaf 80bc
00000260: 045c 0c3a 6ede 0bbd 7244 2f3c dc05 1fbd
00000270: 5c8d 84bc df5e 04bc e16e af3a a51d f83c
00000280: e192 a3bc 2b71 92bb 7dba 383d 13f7 39bd
00000290: 61c7 193d 648c b4bc dfcd aabc 5dee 963c
000002a0: 74e2 31bd 69f7 cfbc cbbe 27bd fe16 fb3b
000002b0: c7d7 1fbd 7123 b3bc 7133 6e3a b052 283c
000002c0: 1840 443d d033 cc3b fc7e 46bb fc56 a0bc
000002d0: ed23 7ebc 67f8 26bc 49bd a03c 5556 1f3d
000002e0: 1705 043d 4c8d 443c 95ea 353c 7cbd 9a3c
000002f0: c35f 243c 6e46 12bd 7d3e 2bbd 8d63 32bd
00000300: 3610 15bd 462d bfbc 4173 ff3c 390d 213d
00000310: 8cca 97bc cead 243c 2f94 3a3c e849 ba3c
00000320: c20b 51b8 0f74 5f3c 19ba 02bd ce1e c93c
00000330: d654 e0bb 3e0d 113c fbb4 b1bb 902a 53bb
00000340: 81b6 aeba 6f7a 02bc 363a 423d fdca 8bbc
00000350: 785c ca3c 4249 04bd cdfd 063d 239f 2c3c
00000360: 48f1 4dbc abbe 8c3c d076 0ebd 1985 52bc
00000370: afe5 35bc 2e07 943c 583a c63b 376d b8bb
00000380: 5d97 da39 a3da 91bc cc55 0ebc df89 d1bb
00000390: 7ca2 a1bc 8aff 17bd 0ec2 7f3c 38bb 113d
000003a0: 627f 1cbc 5033 863a 2010 31bd f130 95bb
000003b0: 3c57 363d 0f8d 213c 4a9b 863c 307e 223c
000003c0: 7bf9 46bd 3a57 fb3c 3e9a 023d 043f 023c
000003d0: a895 053b a333 083b 6ae9 bf3c 54dd acbc
000003e0: e984 a33c cfe6 98bc 0c61 0dbc 3357 023c
000003f0: a6dc 3a3c bdbe 35bc a299 753c a06f 4b3c

w_a_006 f4 [4, 768]
-0.029301077 -0.014476995 -0.0031546643 0.0037854495 0.018049354 -0.020724272 0.017794132 0.050342504
-0.040120617 -0.0027696083 0.021766577 -0.045606248 -0.010615298 0.013421072 -0.011960716 0.004513702
0.017067865 -0.015308919 -0.051509492 -0.036427807 0.033544436 -0.015498102 -0.01718489 0.01206169
0.0060398104 -0.034338657 0.02469104 0.013452471 0.010566307 0.010648184 0.03978143 -0.013306575
0.0026393593 0.035614185 0.0100958785 -0.009654548 0.0046258173 -0.011505837 -0.0059865876 0.023855714
0.0012021102 -0.019234503 -0.0004912817 -0.01624318 -0.008671854 0.0013612012 -0.014024592 0.027342243
0.048397336 0.01532738 0.004323304 0.00532045 0.03153871 0.0006858827 0.036632378 0.03897358
-0.014161822 0.025400527 -0.03777327 0.035729878 -0.027193058 0.02151422 0.018879905 0.007930174
0.003931004 -0.01056727 0.023318216 -0.016087787 -0.014371231 0.011403154 0.037868578 -0.011590642
0.01907853 -0.0124788955 -0.03905544 -0.03507354 0.026345583 0.0032400056 0.015352589 0.015939625
-0.023101449 -0.033648115 -0.0050230715 0.03748085 0.0049810503 -0.0052109365 0.012933825 0.0012069389
-0.012412375 0.017376471 0.011391187 0.03470592 -0.04142078 -0.021515066 0.01587476 -0.017512418
-0.012501342 0.00843755 -0.0022951758 0.03018492 -0.026828097 0.028732065 0.04467663 0.028469643
-0.010528208 0.011328618 0.023567693 0.020360285 -0.0132621685 0.019328931 0.022614893 -0.025775664
-0.002052405 0.016472423 0.04444699 0.034546927 -0.028275628 -0.0049779275 -0.024387715 -0.02872622
0.027700659 0.049590547 -0.018961677 -0.0046895635 -0.0116997985 -0.034411304 -0.008255609 -0.033796627
0.027628846 -0.042181958 0.0029091986 0.0060418057 0.039764892 -0.039024476 0.030114999 0.024706993
-0.01981127 0.0058663827 0.019896017 -0.017664054 -0.006292825 -0.034533743 -0.019865647 0.014656584
0.017924108 -0.013708187 0.0067775156 0.012328406 -0.032884147 0.032250058 -0.010144434 -0.015717909
-0.025590193 0.0067626806 0.023091555 -0.012724054 -0.020097645 0.013421893 0.01815831 -0.019894553
-0.0320279 -0.018896908 -0.038032487 0.036232356 -0.040223904 0.039528344 0.0029247233 -0.020848239
-0.016190069 0.038052816 -0.00059280754 -0.03523625 0.048573267 0.026192293 0.010846106 0.00677565
-0.04009742 0.034117334 0.018306289 0.02604854 0.006878241 -0.037233185 -0.0041398327 0.037341896
0.005831528 -0.00989336 -0.027503625 0.011391448 0.029769963 -0.011998633 0.028012978 0.01357247
0.033473186 0.0080532385 0.0049488978 -0.039691284 -0.033778105 -0.039597135 0.01608153 0.01289112
0.037227727 0.030422404 -0.025362793 -0.012832164 -0.00853787 -0.021867514 -0.026765928 0.024486214
0.0044309543 0.013423865 -0.028366704 -0.022912735 -0.01163659 0.0042218757 -0.020197073 -0.011968587
-0.04433994 0.015781548 -0.0018383918 -0.01993017 0.0010167708 0.039020386 0.029755635 0.0100060785
-0.008779719 0.0252593 0.020273682 -0.012033387 -0.018610207 -0.012395774 -0.0026741696 -0.048748486
-0.036700554 0.0039100144 -0.027924057 0.01535236 0.018120198 0.0044397963 -0.0058602206 0.0060019945
0.008435212 0.043261986 0.015859531 -0.031154042 -0.0013746651 -0.020654915 0.013201362 0.0080799805
0.010419029 -0.038944587 0.02130728 0.03623179 -0.0027122598 -0.023868226 -0.034564305 0.016334578
00000000: d008 f0bc eb30 6dbc 7cbe 4ebb 4e15 783b
00000010: 3ddc 933c f3c5 a9bc 00c5 913c f133 4e3d
00000020: 8455 24bd 5182 35bb d24f b23c 9ecd 3abd
00000030: c9eb 2dbc 0ee4 5b3c e1f6 43bc ade7 933b
00000040: e8d1 8b3c 43d2 7abc 9efb 52bd 5335 15bd
00000050: e465 093d c0eb 7dbc 54c7 8cbc 659e 453c
00000060: 9ae9 c53b b1a6 0cbd dd44 ca3c c167 5c3c
00000070: 4e1e 2d3c b975 2e3c daf1 223d d203 5abc
00000080: 1af9 2c3b 2ee0 113d 2f69 253c 1c2e 1ebc
00000090: 2b94 973b fa82 3cbc 232b c4bb 0f6d c33c
000000a0: 2090 9d3a ad91 9dbc 5bc9 00ba 6b10 85bc
000000b0: 6414 0ebc 556a b23a 67c7 65bc d7fc df3c
000000c0: 493c 463d b11f 7b3c 81aa 8d3b 2b57 ae3b
000000d0: bc2e 013d cfcc 333a d50b 163d c3a2 1f3d
000000e0: fd06 68bc c414 d03c 25b8 1abd 7e59 123d
000000f0: fac3 debc 973e b03c 08aa 9a3c 8fed 013c
00000100: a7cf 803b 5822 2dbc d805 bf3c 89ca 83bc
00000110: 5075 6bbc 4bd4 3a3c 151c 1b3d ade6 3dbc
00000120: 944a 9c3c 4874 4cbc 99f8 1fbd 46a9 0fbd
00000130: b1d2 d73c 4656 543b 6d89 7b3c d193 823c
00000140: 403f bdbc 9bd2 09bd 9498 a4bb 8585 193d
00000150: 1438 a33b 81c0 aabb 65e8 533c 2632 9e3a
00000160: 465d 4bbc 1a59 8e3c 1aa2 3a3c cb27 0e3d
00000170: d6a8 29bd 5d40 b0bc c90b 823c 3476 8fbc
00000180: 6ed2 4cbc a63d 0a3c a96a 16bb 5e46 f73c
00000190: 99c6 dbbc 825f eb3c d8fe 363d 2b39 e93c
000001a0: 817e 2cbc ab9b 393c 0911 c13c 9dca a63c
000001b0: 9149 59bc b557 9e3c de42 b93c 7c27 d3bc
000001c0: a481 06bb 2df1 863c 0c0e 363d 1481 0d3d
000001d0: 4aa2 e7bc e21d a3bb bfc8 c7bc 4053 ebbc
000001e0: 7eec e23c 751f 4b3d 8555 9bbc e9aa 99bb
000001f0: 83b0 3fbc def2 0cbd 8942 07bc 556e 0abd
00000200: e455 e23c fdc6 2cbd 41a8 3e3b 57fa c53b
00000210: 83e0 223d 21d8 1fbd bbb3 f63c 5266 ca3c
00000220: 3f4b a2bc c93a c03b f9fc a23c 35b4 90bc
00000230: 0b34 cebb 4173 0dbd 48bd a2bc 2b22 703c
00000240: 94d5 923c 4e98 60bc ec15 de3b 15fd 493c
00000250: 87b1 06bd a318 043d d734 26bc d8c2 80bc
00000260: 86a2 d1bc 7a99 dd3b 802a bd3c 8d78 50bc
00000270: d1a3 a4bc 80e7 5b3c bcc0 943c e7f9 a2bc
00000280: b02f 03bd b0cd 9abc f4c7 1bbd 6168 143d
00000290: d2c1 24bd 79e8 213d b7ac 3f3b edc9 aabc
000002a0: 09a1 84bc 45dd 1b3d a466 1bba e353 10bd
000002b0: c3f4 463d 3891 d63c deb3 313c 4606 de3b
000002c0: 313d 24bd 9ebe 0b3d 12f7 953c bf63 d53c
000002d0: de62 e13b d381 18bd 6fa7 87bb d1f3 183d
000002e0: 6716 bf3b c217 22bc 484f e1bc 32a3 3a3c
000002f0: 23e0 f33c ea95 44bc 797b e53c 115f 5e3c
00000300: 2e1b 093d bbf1 033c 5d2a a23b 5493 22bd
00000310: e95a 0abd 9b30 22bd 6abd 833c 4735 533c
00000320: 1a7c 183d 6838 f93c a2c5 cfbc ff3d 52bc
00000330: 6ce2 0bbc 8023 b3bc 3844 dbbc 5097 c83c
00000340: 8a31 913b c5ef 5b3c 4a61 e8bc 7db3 bbbc
00000350: 65a7 3ebc a957 8a3b 5574 a5bc e417 44bc
00000360: cc9d 35bd 4e48 813c 31f6 f0ba 9944 a3bc
00000370: 2b45 853a d7d3 1f3d 17c2 f33c 89f0 233c
00000380: cfd8 0fbc 97ec ce3c fe14 a63c af27 45bc
00000390: 6f74 98bc a517 4bbc 1f41 2fbb 7eac 47bd
000003a0: 5253 16bd 941f 803b fec0 e4bc 7788 7b3c
000003b0: cf70 943c b67b 913b 1807 c0bb 61ac c43b
000003c0: d833 0a3c 7b33 313d d9eb 813c c336 ffbc
000003d0: 1b2e b4ba 7f34 a9bc 874a 583c e561 043c
000003e0: 93b4 2a3c 5c84 1fbd 9b8c ae3c c967 143d
000003f0: 2bc0 31bb 4c87 c3bc 4d93 0dbd 18d0 853c
