lora_weights/lora_rank2.safetensors (safetensors, 298392 bytes, 48 tensors)

w_a_000 f4 [2, 768]
-0.0010163361 -0.0030503946 -0.037093684 0.01006401 0.0045198337 -0.014878484 -0.0013729823 -0.020205647
0.03373592 0.010122811 -0.0115500195 -0.014883578 -0.008077384 -0.010638897 -0.042930603 0.0016426333
0.020158647 -0.043135673 0.0070155147 -0.0135882115 -0.01719421 -0.0076748636 0.029114425 -0.04184573
-0.034208693 -0.015527254 0.0060289954 -0.016453449 -0.018804412 0.0268357 0.0010325427 -0.036665145
0.04227376 -0.0061830785 -0.021088608 0.0064528487 0.016572593 0.01884615 -0.002371814 0.012890995
0.03196317 -0.029473333 -0.020289343 0.026149578 0.008877903 0.028952332 0.015930377 0.033783488
0.04179661 0.031417564 0.024668574 0.014911123 -0.017265046 0.00411711 0.024566367 -0.029258568
0.023555368 -0.02054577 0.002059808 0.014105955 0.01616167 0.025768293 0.029496038 0.00478002
-0.012720447 0.012166487 0.02669933 0.033443652 -0.024024947 0.009263625 0.019915944 0.0055676247
0.0053223833 -0.006359842 -0.0070964233 0.00050122105 0.0057253633 -0.024990907 0.023286806 0.02348507
-0.021309892 0.039591767 -0.025073797 0.03750826 0.030854793 -0.0027295789 -0.007017944 0.012972799
0.026692348 -0.015519379 -0.01508429 -0.033419125 -0.017215103 -0.033062026 -0.0089885555 0.026927017
0.030679982 0.030052405 -0.015879944 -0.0021818134 -0.022114554 0.048180122 0.04012694 -0.011985352
0.011132691 -0.013647147 -0.019093694 0.03770451 -0.013579675 -0.0007861905 0.0016272655 0.0139781935
0.028391754 0.019830976 -0.012366669 -0.014112731 0.030908491 0.0046173874 -0.013982338 -0.026495637
0.04560467 -0.029946499 0.013776166 0.009752826 -0.02780901 -0.021402659 -0.016387975 0.0038679203
-0.013501349 0.0035675413 0.026456982 -0.0028729206 -0.021952415 -0.01883426 0.03726853 -0.010058433
0.03722636 0.0011798022 -0.022732696 -0.027881758 -0.040165752 -0.009746211 0.0055322344 -0.0046770545
0.021942489 0.030367624 0.017105853 0.02075831 0.0063786265 0.006616139 0.022506248 0.017373638
-0.0026191948 0.016754404 0.029026452 -0.0018870919 0.009761447 0.0016727368 -0.022871707 -0.005387363
0.03392266 -0.020799415 0.04682799 -0.009873424 0.029219925 -0.03724673 0.004619918 -0.031463202
-0.012052796 -0.00019800989 -0.02286846 0.035574395 -0.02369688 -0.0126858475 0.019757265 0.00933843
0.009777206 0.019841185 -0.004164175 -0.023904113 0.003930976 0.03311159 -0.0020249847 0.03390392
0.025926184 -0.019774348 0.0050216224 0.009216595 0.045016088 -0.021264825 -0.032186866 0.029759185
0.023774203 0.03437205 0.024067633 0.02208939 -0.008566108 -0.0043910816 0.012850712 0.03182005
-0.022392811 -0.013591449 -0.01079232 -0.03118322 0.03345632 0.029368017 -0.022206673 0.02799657
0.017724786 -0.018866206 0.0010702084 0.007635173 0.012154804 0.015185135 0.034346253 0.011352421
0.009244636 0.011936417 -0.037624642 -0.012728485 -0.047991812 0.007212094 -0.026400922 -0.011804952
-0.038323008 0.009405656 -0.00082136603 0.023144223 -0.03588048 -0.02836653 -0.011534171 -0.0045961924
0.015205986 -0.0398015 -0.0019801112 0.037786108 -0.039325885 -0.03383986 -0.030453604 0.0128601175
-0.03868015 0.008773518 0.017726447 0.015800588 -0.015691994 -0.011862674 0.02403073 0.023413343
0.034030948 0.007662489 -0.033801317 -0.015865693 0.0020936462 0.008827374 -0.027376592 -0.03418378
00000000: 9536 85ba 21e9 47bb 8cef 17bd 84e3 243c
00000010: 1d1b 943b e3c4 73bc a4f5 b3ba 5086 a5bc
00000020: ad2e 0a3d 26da 253c 4b3c 3dbc 40da 73bc
00000030: 0157 04bc c54e 2ebc 00d8 2fbd a14d d73a
00000040: bf23 a53c 08af 30bd 67e2 e53b 17a1 5ebc
00000050: dfda 8cbc 6c7d fbbb 6081 ee3c 6e66 2bbd
00000060: 6a1e 0cbd 0666 7ebc e18e c53b 62c9 86bc
00000070: b60b 9abc 8bd6 db3c 6256 873a 312e 16bd
00000080: 4027 2d3d 6c9b cabb 04c2 acbc 6b72 d33b
00000090: 3fc3 873c 3e63 9a3c 7070 1bbb c034 533c
000000a0: d0eb 023d 0f72 f1bc d635 a6bc a437 d63c
000000b0: a074 113c 712d ed3c 6c80 823c 8e60 0a3d
000000c0: ec32 2b3d b4af 003d c015 ca3c c84d 743c
000000d0: 6d6f 8dbc d2e8 863b 683f c93c aaaf efbc
000000e0: 30f7 c03c 9a4f a8bc d8fd 063b aa1c 673c
000000f0: 7b65 843c 0718 d33c ada1 f13c b7a1 9c3b
00000100: 6c69 50bc f255 473c 8eb8 da3c 36fc 083d
00000110: f7cf c4bc 76c6 173c c326 a33c 9f70 b63b
00000120: 6367 ae3b 3966 d0bb 1d89 e8bb 6064 033a
00000130: d49b bb3b bbb9 ccbc f9c3 be3c c363 c03c
00000140: 1592 aebc fa2a 223d 9067 cdbc 43a2 193d
00000150: 31c3 fc3c bce2 32bb c8f6 e5bb dd8b 543c
00000160: e9a9 da3c fe44 7ebc 1924 77bc 7ee2 08bd
00000170: b006 8dbc 0c6c 07bd bc44 13bc 0c96 dc3c
00000180: 9654 fb3c 7630 f63c a816 82bc c1fc 0ebb
00000190: 9529 b5bc 8558 453d 255c 243d 365e 44bc
000001a0: e465 363c 4998 5fbc 616a 9cbc 0b70 1a3d
000001b0: 497d 5ebc 5a18 4eba f849 d53a cb04 653c
000001c0: d395 e83c 9274 a23c 929d 4abc 1639 67bc
000001d0: ce33 fd3c 744d 973b 2d16 65bc 610d d9bc
000001e0: f6cb 3a3d 5c52 f5bc 6eb5 613c 51ca 1f3c
000001f0: b9cf e3bc a154 afbc 1340 86bc ef7c 7d3b
00000200: c334 5dbc 69cd 693b 50bc d83c 9c47 3cbb
00000210: 8dd5 b3bc 4e4a 9abc e3a6 183d 20cc 24bc
00000220: ab7a 183d 98a3 9a3a eb39 babc 4968 e4bc
00000230: d884 24bd 92ae 1fbc bf47 b53b fa41 99bb
00000240: bcc0 b33c 86c5 f83c 9321 8c3c 550d aa3c
00000250: cc03 d13b 32cc d83b 065f b83c 2953 8e3c
00000260: cca6 2bbb 8840 893c e2c8 ed3c 4c58 f7ba
00000270: 7aee 1f3c bc3f db3a 725d bbbc 7a88 b0bb
00000280: 7df2 0a3d 8963 aabc b5ce 3f3d 24c4 21bc
00000290: a05e ef3c 0790 18bd ae62 973b 8fdf 00bd
000002a0: 1779 45bc e0a0 4fb9 a356 bbbc 75b6 113d
000002b0: f61f c2bc 4dd8 4fbc fdd9 a13c 3700 193c
000002c0: 9330 203c fb89 a23c a273 88bb 8fd2 c3bc
000002d0: 6bcf 803b 05a0 073d 9bb5 04bb d6de 0a3d
000002e0: 2663 d43c d0fd a1bc 6c8c a43b 3401 173c
000002f0: ca62 383d 9233 aebc 60d6 03bd 89c9 f33c
00000300: 1ec2 c23c b5c9 0c3d 7c29 c53c cff4 b43c
00000310: dc58 0cbc 10e3 8fbb cb8b 523c be55 023d
00000320: 2171 b7bc abae 5ebc 45d2 30bc f473 ffbc
00000330: 7f09 093d 3295 f03c c5ea b5bc 1059 e53c
00000340: 9233 913c 4d8d 9abc 3c46 8c3a 7930 fa3b
00000350: f124 473c 13cb 783c a8ae 0c3d 81ff 393c
00000360: d076 173c f690 433c 4c1c 1abd 238b 50bc
00000370: 1093 44bd 6e53 ec3b bf46 d8bc 8f69 41bc
00000380: 96f8 1cbd 2e1a 1a3c f150 57ba f498 bd3c
00000390: 69f7 12bd ed60 e8bc d2f9 3cbc a89b 96bb
000003a0: 8722 793c e606 23bd c1c4 01bb 9bc5 1a3d
000003b0: 2e14 21bd aa9b 0abd d679 f9bc 3eb3 523c
000003c0: 146f 1ebd cdbe 0f3c 0e37 913c 3c70 813c
000003d0: 7f8c 80bc a95b 42bc 18dc c43c 57cd bf3c
000003e0: 0964 0b3d 9e15 fb3b 4073 0abd c5f8 81bc
000003f0: 8e35 093b b1a0 103c e044 e0bc 4b04 0cbd

w_a_001 f4 [2, 768]
-0.001421988 -0.0110482 0.050242905 0.012926061 0.0055239145 -0.015544475 -0.005949991 0.0052506686
-0.008182451 0.02146022 0.0044781887 -0.020682944 0.048641115 0.05072472 0.025408328 -0.02577271
0.0068276855 -0.026236521 -0.040551547 -0.020818649 0.018769836 0.007722252 -0.0432849 0.008621656
-8.117688e-05 -0.016723664 -0.039208606 0.007600795 0.022221493 -0.039916955 0.01679933 -0.00023761702
-0.036463406 -0.007736298 -0.043279167 0.001155787 0.004863446 -0.005659268 0.009588826 -0.027207687
0.010278712 0.009776349 -0.012490916 0.017812902 0.04720897 -0.03274347 0.019971306 -0.004572683
-0.00019938136 -0.003011092 -0.0076983864 0.03834246 0.01853995 0.036099676 0.025765149 0.02943975
-0.02267318 -0.004170103 0.0058619725 0.022590414 -0.04297178 0.025790386 -0.00303088 0.011716314
-0.01180372 -0.0059149605 0.019637357 0.040056217 0.0043699783 0.028833922 -0.04208413 -0.0039517023
-0.007113182 0.0120036565 0.012010528 0.017392498 0.02273629 -0.011694026 -0.019830208 -0.011712361
0.0026423226 0.023040336 -0.034935433 0.009970572 0.006028642 -0.0053426353 -0.008284844 0.017201256
0.015409034 -0.014520481 -0.0097432 0.008978484 -0.0398034 -0.02882233 0.021966204 -0.041290343
-0.017535971 -0.0108205825 -0.031513464 0.01756169 0.04712609 -0.010206085 0.012505497 0.03392492
-0.010166114 0.012763515 0.006049464 0.016840449 -0.037523318 -0.021296512 -0.03177579 -0.015581817
0.015354199 0.0077021555 -0.011316104 -0.048564564 0.005178213 -0.007469727 -0.04264124 -0.03932535
-0.029399205 0.0004064754 -0.0069222217 0.03815358 0.0019605695 -0.044325657 0.0377188 -0.0043340875
0.007281496 -0.008352541 -0.02127021 -0.03999734 0.045847736 -0.009153345 0.0076783104 0.04031283
-0.05110392 0.015593703 -0.027511815 -0.022777766 0.010410436 -0.004003974 -0.049980395 -0.01094864
-0.0058222855 0.020014752 0.0030021984 -0.006158497 0.040473703 0.016256114 -0.006097148 -0.03267676
-0.031909622 0.035240404 0.033158608 -0.010271793 0.011707054 0.042205893 0.019434422 0.020612324
-0.010063825 0.04221881 -0.043282855 -0.016019288 -0.013569734 -0.01395562 -0.028681824 0.02921417
0.024269301 0.0088414755 0.014041913 -0.029167365 0.0015023014 -0.020162886 -0.030887349 0.0061458764
0.012534505 -0.039945006 -0.036214545 -0.047300637 0.028870603 0.008245395 -0.017762598 -0.023717793
-0.012009259 0.03066965 -0.028377075 0.049319733 0.016525518 -0.013907515 -0.0008928522 -0.0051523726
-0.013730955 -0.022494236 -0.00013263934 -0.004105158 -0.04038862 -0.011622371 -0.007840339 0.003405121
-0.014423411 -0.0067707193 0.02569006 -0.0367928 -0.044746887 -0.0040210704 0.039030917 0.0072140438
0.02508206 0.006604038 0.015803415 -0.013917511 -0.017986923 0.017214341 0.011247063 0.013780984
-0.019349534 0.012474942 -0.021726647 -0.016939892 0.025604723 -0.005483348 -0.03037441 0.016619176
0.01578506 -0.031146703 0.008414954 0.026213966 0.017789375 0.0017716436 0.010597575 -0.02845312
0.04182154 -0.01627049 -0.028141188 0.020571718 -0.006588317 -0.021036768 -0.030023707 0.007682019
-0.029676232 0.008808242 -0.02787415 0.013412346 -0.018940639 -0.007323172 0.0024595694 0.023175102
0.0074761445 0.020471834 -0.034666333 0.009611676 -0.040134687 -0.029564064 0.02357586 0.0015627258
00000000: 0062 baba 8203 35bc 81cb 4d3d d4c7 533c
00000010: f401 b53b 41ae 7ebc 24f8 c2bb cd0d ac3b
00000020: b00f 06bc 58cd af3c c5bd 923b 476f a9bc
00000030: e83b 473d b9c4 4f3d 2025 d03c 4a21 d3bc
00000040: c7ba df3b f9ed d6bc 6119 26bd df8b aabc
00000050: 33c3 993c f20a fd3b 824b 31bd d941 0d3c
00000060: 813d aab8 1100 89bc 3499 20bd 1710 f93b
00000070: d909 b63c f67f 23bd c09e 893c d528 79b9
00000080: a75a 15bd c580 fdbb 7f45 31bd c77d 973a
00000090: 8b5d 9f3b 6171 b9bb 741a 1d3c a8e2 debc
000000a0: 0b68 283c fb2c 203c b3a6 4cbc 5dec 913c
000000b0: 315e 413d 041e 06bd dd9a a33c 72d6 95bb
000000c0: 0711 51b9 be55 45bb bf42 fcbb fc0c 1d3d
000000d0: 18e1 973c 41dd 133d 6f11 d33c a12b f13c
000000e0: 1bbd b9bc 5ca5 88bb ca15 c03b 880f b93c
000000f0: 2d03 30bd 5c46 d33c baa1 46bb c8f5 3f3c
00000100: 6464 41bc 49d2 c1bb 86de a03c fd11 243d
00000110: 0932 8f3b 1e35 ec3c 6960 2cbd 487d 81bb
00000120: b215 e9bb fcaa 443c cec7 443c b67a 8e3c
00000130: 7541 ba3c 4d98 3fbc f672 a2bc 34e5 3fbc
00000140: d12a 2d3b 16bf bc3c 7518 0fbd 9c5b 233c
00000150: ea8b c53b 4611 afbb 28bd 07bc a6e9 8c3c
00000160: 2c76 7c3c 50e7 6dbc f1a1 1fbc 7e1a 133c
00000170: e408 23bd cf1c ecbc 78f2 b33c 1020 29bd
00000180: 99a7 8fbc d048 31bc 4314 01bd 89dd 8f3c
00000190: 4907 413d 6c37 27bc dbe3 4c3c dbf4 0a3d
000001a0: c68f 26bc 101e 513c 953a c63b fbf4 893c
000001b0: 0db2 19bd 0676 aebc 5527 02bd e14a 7fbc
000001c0: 2e90 7b3c 5d62 fc3b 2e67 39bc a3eb 46bd
000001d0: 00ae a93b 9dc4 f4bb 95a8 2ebd 9e13 21bd
000001e0: 9ad6 f0bc 341c d539 ced3 e2bb ee46 1c3d
000001f0: e67c 003b d28e 35bd 077f 1a3d f604 8ebb
00000200: 9e99 ee3b 19d9 08bc dd3e aebc 40d4 23bd
00000210: d6ca 3b3d e9f7 15bc 569a fb3b 111f 253d
00000220: 5852 51bd bb7c 7f3c 7560 e1bc 7098 babc
00000230: 8990 2a3c c533 83bb 3eb8 4cbd ed61 33bc
00000240: dfc8 bebb faf5 a33c 88c0 443b 38cd c9bb
00000250: c1c7 253d 8b2b 853c 96ca c7bb 11d8 05bd
00000260: aab3 02bd 3e58 103d 52d1 073d 064b 28bc
00000270: f2ce 3f3c 16e0 2c3d f034 9f3c 2ddb a83c
00000280: bee2 24bc a2ed 2c3d 5d49 31bd e23a 83bc
00000290: 9753 5ebc 1da6 64bc 25f6 eabc 8e52 ef3c
000002a0: 6ad0 c63c d6db 103c 0d10 663c 66f0 eebc
000002b0: dfe8 c43a a32c a5bc 7707 fdbc 5963 c93b
000002c0: 865d 4d3c 609d 23bd b455 14bd 50be 41bd
000002d0: 0b82 ec3c b117 073c de82 91bc d14b c2bc
000002e0: 7cc2 44bc eb3e fb3c 0a77 e8bc 7d03 4a3d
000002f0: 8660 873c 59dc 63bc 4c0e 6aba 3cd5 a8bb
00000300: cdf7 60bc d545 b8bc 1a15 0bb9 9084 86bb
00000310: 8a6e 25bd c26b 3ebc c474 00bc 7328 5f3b
00000320: 2c50 6cbc e9dc ddbb f673 d23c 0cb4 16bd
00000330: 8348 37bd 2fc3 83bb e2de 1f3d c963 ec3b
00000340: e478 cd3c b066 d83b 2a76 813c 4606 64bc
00000350: 5059 93bc 1705 8d3c 9a45 383c a3c9 613c
00000360: ea82 9ebc b363 4c3c 15fc b1bc 87c5 8abc
00000370: ffc0 d13c a8ad b3bb c1d3 f8bc f024 883c
00000380: ac4f 813c 5f27 ffbc e0de 093c acbe d63c
00000390: 06bb 913c 7f36 e83a 74a1 2d3c 8416 e9bc
000003a0: 104d 2b3d b149 85bc 5988 e6bc 0586 a83c
000003b0: cfe2 d7bb 4d55 acbc 47f4 f5bc 72b9 fb3b
000003c0: 921b f3bc 7250 103c 5458 e4bc 75bf 5b3c
000003d0: 6629 9bbc 38f7 efbb ba30 213b b6d9 bd3c
000003e0: 72fa f43b 8cb4 a73c 49fe 0dbd 4b7a 1d3c
000003f0: 4564 24bd 5630 f2bc 2922 c13c 60d4 cc3a

w_a_002 f4 [2, 768]
-0.0396025 -0.03161243 -0.026590502 -0.014479703 0.04945338 -0.010627079 0.025648313 -0.044555172
0.0074219615 0.0062219906 -0.020652495 0.009803529 -0.03602875 -0.03745906 0.031720195 -0.020666352
0.0044466713 -0.014740391 0.045132905 -0.012277661 0.0058640344 -0.023574144 -0.023173917 -0.034776498
-0.03782939 0.027382359 0.01627165 -0.030070988 -0.03525057 -0.013932721 -0.038441435 0.01696318
-0.010504807 -0.033209477 0.029382281 -0.046768047 -0.0068415757 -0.0077366675 0.023197409 0.038038965
-0.032073125 0.014854296 2.262019e-05 0.037172917 0.04155362 -0.023049202 -0.030880572 0.019685868
0.01626237 0.0284283 0.028707597 -0.043900054 0.044436757 -0.014063146 -0.032549683 -0.028668387
-0.025836421 -0.043140557 -0.020370543 0.002324631 -0.004930089 -0.011671696 -0.048306163 0.007662075
0.035909638 0.023977738 0.00583401 0.040293623 0.03505054 0.016782785 -0.008924515 0.023570161
-0.007816702 -0.017064955 -0.025268842 0.03577573 0.04136515 0.01237994 0.023637226 0.043939855
-0.0072024823 -0.00010626431 0.03004611 0.019042782 0.045213804 -0.025550937 -0.029670766 -0.03869952
0.037208065 0.00981295 -0.024957012 0.03896955 0.0004412935 -0.008491025 0.025358753 -0.016863795
0.023409734 -0.0060914517 0.01627346 0.02701322 0.023567736 0.013735849 0.024537547 0.0025881578
0.04018823 -0.005080918 -0.018269874 -0.0044031776 -0.04289032 0.015347951 -0.0342051 0.035991002
0.04037714 -0.030186843 0.0097186 -0.023202466 0.04700628 0.048203453 -0.021838048 0.0010597864
-0.025125107 0.004341886 -0.034011822 0.05046195 0.028881636 -0.043400727 -0.0012768836 -0.029653199
-0.009089899 0.01665096 -0.03398389 -0.022487093 -0.023840588 -0.0050852727 -0.014411917 -0.020070365
0.0002591208 -0.0002482545 -0.017674157 0.0033062745 0.03627676 -0.016701803 0.04157557 -0.048122495
0.02386659 -0.021160915 -0.012429057 -0.007873088 0.027253985 0.039690983 -0.013173135 -0.033671852
-0.01798706 -0.01573256 -0.014477004 0.00573642 0.04214871 0.011492794 0.030457908 -0.009755995
-0.020321205 0.042480685 -0.024817243 -0.04471192 0.01802625 -0.020282203 -0.008737826 0.010451884
-0.028697472 0.013993912 0.025859803 -0.0038582133 -0.014381637 -0.02933456 0.037623506 -0.024241172
0.034169808 -0.015926192 0.0005132581 0.0070984773 -0.038030952 -0.012830418 -0.008850719 -0.04366871
0.013175437 -0.022386247 -0.029841686 -0.00929472 -0.030689098 0.04328052 0.016502144 -0.037014633
-0.010816179 0.0008361973 -0.021596406 -0.011336474 0.039717726 0.04857877 -0.006172659 -0.009229136
0.03257037 -0.023327924 0.035129532 -0.029952358 -0.011894515 -0.009680199 -0.02436503 0.042305674
-0.011503281 -0.006130814 -0.0059323735 0.020673903 0.04539735 -0.012095296 0.011095443 0.004540491
0.0457793 0.01671459 -0.00035797732 0.0023500465 -0.0008867415 0.020449445 -0.025710976 0.0143571235
0.003268024 0.033593304 -0.018939348 -0.018109318 -0.006056635 0.039983068 0.03720046 0.022077512
-0.021396244 0.005560312 -0.0100622 -0.019602748 0.025568914 -0.010194981 -0.026551507 -0.00850759
-0.017451366 0.02580595 0.026583135 -0.032461394 0.008305071 -0.0055633094 0.01606377 -0.027554262
-0.021568041 -0.029121794 -6.626991e-05 -0.0113913845 -0.02984936 0.019730425 -0.04317533 0.01113582
00000000: 3b36 22bd 097c 01bd 53d4 d9bc 473c 6dbc
00000010: a18f 4a3d 331d 2ebc 691c d23c 7c7f 36bd
00000020: ed33 f33b d7e1 cb3b 6c2f a9bc fb9e 203c
00000030: e292 13bd ac6e 19bd 09ed 013d 7b4c a9bc
00000040: 62b5 913b ae81 71bc 48dd 383d 3e28 49bc
00000050: 1627 c03b 901e c1bc 3ad7 bdbc cd71 0ebd
00000060: fef2 1abd f850 e03c 204c 853c 6f57 f6bc
00000070: e762 10bd 1146 64bc c474 1dbd 5ef6 8a3c
00000080: 5b1c 2cbc a906 08bd 1cb3 f03c da8f 3fbd
00000090: 4c2f e0bb df83 fdbb 7e08 be3c bfce 1b3d
000000a0: 1c5f 03bd 6f5f 733c 7dc0 bd37 a142 183d
000000b0: 2134 2a3d aed1 bcbc 41f9 fcbc 4244 a13c
000000c0: a938 853c 77e2 e83c 322c eb3c 8bd0 33bd
000000d0: 5103 363d 1c69 66bc d152 05bd f7d9 eabc
000000e0: e7a6 d3bc 27b4 30bd 20e0 a6bc d658 183b
000000f0: 968c a1bb a43a 3fbc afdc 45bd 2512 fb3b
00000100: fc15 133d f66c c43c 392b bf3b ed0a 253d
00000110: 2891 0f3d 0d7c 893c 2138 12bc 3616 c13c
00000120: a011 00bc cecb 8bbc 9a00 cfbc 9289 123d
00000130: 816e 293d 3bd5 4a3c dba2 c13c 47fa 333d
00000140: cd02 ecbb 38da deb8 4223 f63c 9cff 9b3c
00000150: 1c32 393d 3350 d1bc 1b10 f3bc 6383 1ebd
00000160: 7c67 183d 7fc6 203c a672 ccbc 899e 1f3d
00000170: 695d e739 f11d 0bbc 29bd cf3c f125 8abc
00000180: c5c5 bf3c cd9a c7bb eb4f 853c d44a dd3c
00000190: 2011 c13c 540c 613c f702 c93c 159e 293b
000001a0: 6a9c 243d d47d a6bb b4aa 95bc 8848 90bb
000001b0: c3ad 2fbd f975 7b3c a61a 0cbd 4d6b 133d
000001c0: 8062 253d 664a f7bc c33a 1f3c 1913 bebc
000001d0: a889 403d fc70 453d b5e5 b2bc 88e8 8a3a
000001e0: 2bd3 cdbc 6146 8e3b fb4f 0bbd 31b1 4e3d
000001f0: 2e99 ec3c f6c4 31bd 1b5d a7ba 44eb f2bc
00000200: cded 14bc 9867 883c b132 0bbd da36 b8bc
00000210: 564d c3bc 5ca2 a6bb f61f 6cbc 9b6a a4bc
00000220: 9bda 8739 2828 82b9 65c9 90bc 15ae 583b
00000230: f196 143d 38d2 88bc 254b 2a3d 181c 45bd
00000240: de83 c33c a859 adbc 3ea3 4bbc 20fe 00bc
00000250: c043 df3c 0393 223d 22d4 57bc 7feb 09bd
00000260: 9959 93bc 92e1 80bc f530 6dbc 94f8 bb3b
00000270: 20a4 2c3d 464c 3c3c dd82 f93c 9cd7 1fbc
00000280: a878 a6bc 3a00 2e3d 884d cbbc d923 37bd
00000290: c9ab 933c dd26 a6bc 1929 0fbc 613e 2b3c
000002a0: f616 ebbc b946 653c f0d7 d33c 14da 7cbb
000002b0: f5a0 6bbc 084f f0bc 1b1b 1a3d 6c95 c6bc
000002c0: a4f5 0b3d a577 82bc 2b8c 063a 589a e83b
000002d0: 58c6 1bbd ac36 52bc 9b02 11bc f6dd 32bd
000002e0: cadd 573c 5d63 b7bc 8d76 f4bc e248 18bc
000002f0: b467 fbbc ea46 313d 812f 873c a89c 17bd
00000300: 5836 31bc 4034 5b3a f2ea b0bc 9ebc 39bc
00000310: 0eaf 223d 88fa 463d 0444 cabb cd35 17bc
00000320: 8268 053d 341a bfbc fce3 0f3d a65e f5bc
00000330: 36e1 42bc b399 1ebc 2c99 c7bc b748 2d3d
00000340: 4278 3cbc ffe4 c8bb 5b64 c2bb 515c a93c
00000350: 92f2 393d 592b 46bc a9c9 353c 66c8 943b
00000360: 1383 3b3d 09ed 883c e7ae bbb9 3d03 1a3b
00000370: 3774 68ba 9885 a73c d39f d2bc 243a 6b3c
00000380: 582c 563b 2299 093d b126 9bbc fe59 94bc
00000390: bd76 c6bb 49c5 233d 825f 183d e6db b43c
000003a0: 2d47 afbc 4733 b63b eddb 24bc f195 a0bc
000003b0: e675 d13c d908 27bc 8c82 d9bc 6b63 0bbc
000003c0: 2bf6 8ebc 0067 d33c e0c4 d93c 3df6 04bd
000003d0: fe11 083c 6c4c b6bb 2b98 833c 7ab9 e1bc
000003e0: 76af b0bc d490 eebc 63fa 8ab8 eea2 3abc
000003f0: a586 f4bc b3a1 a13c 9dd8 30bd 0473 363c

w_a_003 f4 [2, 768]
0.047834903 0.021229925 0.011498364 0.01563557 -0.0029791193 -0.038888447 -0.025770914 0.015487067
0.024126915 -0.046908084 -0.03986785 0.011954236 0.040402237 -0.0053181164 -0.044941265 0.009514631
0.001033897 0.01948687 -0.005839556 0.026062857 -0.020247098 0.008810017 0.03755714 0.04229941
0.040996995 -0.040192276 -0.017534617 0.0357801 0.04799677 0.011427917 0.04706321 0.0115811555
0.044109605 -0.00922057 0.009283946 -0.012530854 0.010054031 -0.043653436 -0.02897999 -0.008861624
-0.0056946976 -0.0047739088 0.0040577976 -0.030525157 -0.0093118735 -0.013659035 0.038592424 0.0011315161
-0.0065741073 -0.0021359127 -0.041470543 -0.011968915 0.015497561 0.013878832 0.024133421 -0.00030174933
0.022970628 0.02671741 -0.0437299 -0.045156013 -0.041379787 0.031123482 0.041842546 -0.015806202
0.019176394 -0.030884936 -0.006085772 -0.046350263 0.019680554 0.021389714 0.022548923 0.020502325
-0.014407997 -0.011627905 0.0018936017 -0.009098671 -0.034159973 0.036277533 -0.007752761 -0.022496466
-0.036609136 -0.027829466 -0.0017419348 0.036453992 0.0059933956 -0.018431595 -0.006049693 0.0021539375
0.011740201 0.020518804 -0.05432987 -0.02984106 0.042447276 -0.010814988 -0.017411018 0.027629122
0.0153692365 -0.030501397 0.021531299 -0.024311824 -0.007775837 0.04125442 -0.03530492 0.026273916
-0.042260233 0.006253493 0.0345509 -0.036978293 0.007441428 0.027112639 0.010928562 -0.003574474
0.007869641 0.0021937685 0.04812428 -0.048331577 0.00028336866 0.020131173 0.009771999 -0.011673888
-0.00014370804 0.014946432 -0.01227702 0.019109847 0.018774362 0.04772532 0.017931664 0.026612127
0.024316868 0.0067406897 -0.0042233896 0.026503885 -0.019884763 0.033312198 0.00944146 -0.020528417
0.003976078 0.03122745 0.04993172 -0.0035397294 -0.031380236 0.002499189 0.010756424 0.048050273
-0.016524937 0.0068058767 0.04890788 -0.03272857 0.03085036 -0.008749186 0.036149725 0.0058818934
-0.0011645849 -0.011520455 -0.0030034033 -0.003143918 -0.018262504 -0.023838885 -0.017410185 0.023800753
-0.0053537246 -0.0049031554 0.010233287 0.031167056 -0.040112548 0.041597854 0.013702307 0.026243312
-0.019285666 0.0243237 0.0067031914 0.019628933 0.03554092 0.011206453 0.0117911715 0.010941264
-0.049725555 -0.044947717 -0.0017235234 0.02789798 0.030911418 -0.02229241 0.025380831 0.01765586
0.043154076 0.02289365 0.025104119 0.008149699 0.036351264 -0.0007917286 -0.0039429464 0.033111926
0.011164484 0.0084758075 0.0063307784 0.013952108 -0.040404994 0.009000332 -0.03082882 -0.019921241
0.046973642 0.04097958 -0.009339956 0.041875575 0.0005670316 -0.0017362772 0.011896861 0.0039321412
-0.02224976 -0.04186785 -0.04335652 0.010689037 -0.049643286 -0.025977958 -0.034013227 -0.015235701
-0.044480164 -0.016626626 0.002626265 -0.0067543825 0.03011234 -0.03782282 0.01801786 0.025159268
-0.041367143 0.0023811657 0.012582717 0.05087945 -0.041232605 0.0030722355 0.02030908 0.021026652
0.010077721 -0.047674727 0.03955168 -0.03266719 0.0050496883 -0.032090098 -0.013227589 -0.019415343
0.005053276 0.027340025 0.013574887 0.025961626 0.04783067 0.0014927038 -0.04288855 0.03487626
-0.0082769925 0.0042225383 0.012242313 0.04739462 0.00394676 -0.004574969 0.0075473324 0.006141079
00000000: 88ee 433d 61ea ad3c a263 3c3c 2b16 803c
00000010: 543d 43bb 7e49 1fbd 861d d3bc 78bd 7d3c
00000020: cfa5 c53c b122 40bd 784c 23bd b3db 433c
00000030: d17c 253d 9843 aebb 5514 38bd 41e3 1b3c
00000040: d483 873a eea2 9f3c bf59 bfbb c681 d53c
00000050: 3edd a5bc e457 103c 84d5 193d 2542 2d3d
00000060: 77ec 273d a8a0 24bd c2a4 8fbc 278e 123d
00000070: 4398 443d 283c 3b3c 5ac5 403d e3be 3d3c
00000080: 46ac 343d e011 17bc b11b 183c 364e 4dbc
00000090: aab9 243c f2cd 32bd 7267 edbc 5830 11bc
000000a0: 969a babb 736e 9cbb 46f7 843b e50f fabc
000000b0: d490 18bc 25ca 5fbc 1713 1e3d 614f 943a
000000c0: 9c6b d7bb abfa 0bbb 04dd 29bd 4519 44bc
000000d0: 7be9 7d3c 0a64 633c 74b3 c53c 1c34 9eb9
000000e0: e62c bc3c 78de da3c 201e 33bd 83f5 38bd
000000f0: da7d 29bd acf6 fe3c 1763 2b3d 027c 81bc
00000100: d017 9d3c 6802 fdbc 286b c7bb c6d9 3dbd
00000110: 1d39 a13c 7b39 af3c 85b8 b83c 7ef4 a73c
00000120: 850f 6cbc f882 3ebc bb32 f83a 9812 15bc
00000130: 54eb 0bbd c097 143d df0a febb 824a b8bc
00000140: 76f3 15bd 9ffa e3bc a251 e4ba c850 153d
00000150: 3f64 c43b dbfd 96bc 813c c6bb 1329 0d3b
00000160: f959 403c 0d17 a83c ff88 5ebd 3d75 f4bc
00000170: 32dd 2d3d 5931 31bc 8da1 8ebc 7856 e23c
00000180: 40cf 7b3c 11de f9bc 6862 b03c 9729 c7bc
00000190: 73cc febb 65fa 283d e49b 10bd 653c d73c
000001a0: 1119 2dbd 1aea cc3b 3f85 0d3d 8d76 17bd
000001b0: 39d7 f33b 531b de3c b60d 333c b941 6abb
000001c0: abef 003c 54c5 0f3b f71d 453d 55f7 45bd
000001d0: 1991 9439 21ea a43c bc1a 203c d643 3fbc
000001e0: 55b0 16b9 e1e1 743c 8e25 49bc 418c 9c3c
000001f0: b1cc 993c a07b 433d 6de5 923c ad01 da3c
00000200: 2b34 c73c 01e1 dc3b 5c64 8abb ad1e d93c
00000210: 5fe5 a2bc 5f72 083d 5ab0 1a3c 362b a8bc
00000220: c249 823b b6d0 ff3c 3485 4c3d cefa 67bb
00000230: 9088 00bd 6fc9 233b b63b 303c 5dd0 443d
00000240: 4e5f 87bc d503 df3b a153 483d 650e 06bd
00000250: e5b9 fc3c bf58 0fbc bc11 143d e6bc c03b
00000260: fca4 98ba 4ac0 3cbc bfd4 44bb 310a 4ebb
00000270: 3f9b 95bc c449 c3bc ce9f 8ebc ccf9 c23c
00000280: 4c6e afbb a6aa a0bb 84a9 273c 0e52 ff3c
00000290: 0e4d 24bd 8362 2a3d a47f 603c 37fc d63c
000002a0: f9fc 9dbc 7f42 c73c 72a6 db3b dbcc a03c
000002b0: 5b93 113d 459b 373c c22f 413c fd42 333c
000002c0: 06ad 4bbd 191b 38bd d9e7 e1ba 4e8a e43c
000002d0: f139 fd3c 929e b6bc 76eb cf3c 06a3 903c
000002e0: 54c2 303d 778b bb3c 27a7 cd3c 5186 053c
000002f0: 10e5 143d 028c 4fba d533 81bb 5fa0 073d
00000300: 3deb 363c 1dde 0a3c 6b72 cf3b 6297 643c
00000310: b57f 25bd 2176 133c b98c fcbc df31 a3bc
00000320: 6f67 403d 34da 273d 9d06 19bc b985 2b3d
00000330: d9a4 143a cc93 e3ba 0deb 423c 31d9 803b
00000340: 2145 b6bc 9f7d 2bbd 9b96 31bd 1221 2f3c
00000350: c256 4bbd bacf d4bc 7451 0bbd 299f 79bc
00000360: d530 36bd 9034 88bc 6a1d 2c3b de53 ddbb
00000370: 27ae f63c 1aec 1abd 319a 933c cf1a ce3c
00000380: 9870 29bd 550d 1c3b be27 4e3c f866 503d
00000390: 85e3 28bd 8f57 493b 3a5f a63c 1640 ac3c
000003a0: 071d 253c 9346 43bd f100 223d 08ce 05bd
000003b0: db77 a53b e870 03bd 88b8 58bc ed0c 9fbc
000003c0: f495 a53b 30f8 df3c 3469 5e3c 7aad d43c
000003d0: 18ea 433d d4a6 c33a e7ab 2fbd 69da 0e3d
000003e0: 399c 07bc 385d 8a3b fb93 483c dc20 423d
000003f0: d353 813b 9fe9 95bb 9d4f f73b 1b3b c93b

w_a_004 f4 [2, 768]
-0.0008967581 -0.022573788 0.01692597 0.01801556 0.007288121 0.026778417 0.026785027 0.0103663765
0.0039046924 0.0077077816 0.020212816 0.044539966 -0.0012634386 0.03501441 -0.025279727 -0.029577428
0.008569635 -0.007609184 -0.041892737 0.04308345 0.008364821 -0.004421703 0.030114986 -0.005691061
0.042197153 0.045780472 -0.010603791 0.043620024 0.009200197 -0.05442446 0.010117626 0.021099169
-0.017004037 -0.017699614 -0.0145830745 -0.015716508 -0.031093065 0.016720835 -0.004008695 -0.0043526855
0.01023239 -0.04436158 0.029477695 -0.01780422 0.018034698 -0.018816644 0.03684972 -0.041155122
0.016045405 -0.014554133 -0.009536678 0.035825443 0.003306576 0.013709132 -0.0026435023 -0.0070021604
0.016211774 0.029212577 -0.013478624 -0.02235281 0.029915178 0.022118673 0.019705473 0.0063493545
0.034617033 -0.0011207171 -0.02118382 -0.023745047 -0.021405859 -0.0015002257 -0.017915389 -0.017541409
-0.0354714 -0.023366574 0.019150771 0.017838342 0.010733893 0.038308047 -0.0032725215 -0.014506032
0.015634658 0.017033175 -0.029803485 -0.048365206 -0.027487854 0.017262915 0.01365531 0.0157971
-0.018865598 0.009309144 -0.008527957 0.019264687 -0.0042227604 0.021456715 -0.004432695 -0.004940324
0.0029583515 0.019919837 0.0034497338 -0.040032852 0.019593207 -0.024482658 0.03544978 0.014372727
0.007304966 0.032079667 0.0111587765 0.013772227 0.0040513272 -0.04562215 0.030300707 0.031233877
-0.022879863 0.00497372 -0.010474367 -0.04176839 0.026574282 -0.013536851 -0.041519675 -0.022478519
-0.015395647 -0.01414168 -0.033662576 -0.019318337 -0.0018061474 0.037421733 0.022081342 -0.0030417375
-0.034073994 0.0219639 -0.004495688 -0.019576238 -0.0024287154 0.010551729 -0.025128946 -0.03377145
-0.0077336784 0.015987271 0.005905794 0.0021542923 -0.031661037 -0.019533621 -0.03183472 0.0010029946
0.03157257 0.0038666667 -0.0052318736 -0.01893052 -0.0016722461 -0.027977906 0.03389828 -0.025080713
0.011586343 -0.024447756 0.016688434 0.042362217 0.0028075816 6.011175e-05 0.029097596 -0.0299143
0.008911964 -0.017536458 0.008013644 0.01171585 -0.0072352896 0.026544029 0.03320725 -0.03188298
0.007066981 0.001720304 0.04646238 0.0023470796 0.029000923 0.01003131 -0.01885628 -0.012909372
-0.03495227 -0.038697407 0.030185813 0.011956645 0.016388398 0.002119113 -0.0075220563 -0.0334162
0.036344323 -0.029600276 0.02850197 0.0054238895 -0.031580407 0.02745938 0.016595557 -0.043618668
0.0014631326 -0.039004516 0.006077422 0.022023853 0.006467121 0.010411959 0.043923877 0.022908678
-0.024809502 -0.015343018 -0.02063931 -0.031675525 0.039399587 0.0044430853 0.01896329 0.006709774
-0.017927738 0.00075141183 0.012736789 -0.040218685 -0.04926622 0.037520688 0.004933061 -0.03443976
-0.01919795 -0.0151052885 -0.012524669 0.0014434985 0.002530233 0.006451365 -0.00078207726 0.035580438
0.00089918065 0.008725791 -0.03950827 -0.0006348414 0.014035165 0.03137841 -0.009282684 -0.00030602756
-0.028004497 -0.023544228 0.025220593 0.019444047 0.02154641 -0.0024552557 -0.034714073 0.018831184
-0.023597278 -0.031092081 -0.028678574 0.02694263 -0.028457845 -0.017684316 0.035740905 0.004298925
0.024060935 -0.030363621 0.008047364 0.02081471 0.02217671 -0.042111572 0.008823235 -0.025767056
00000000: 6b14 6bba aaec b8bc 55a8 8a3c 5e95 933c
00000010: 31d1 ee3b 695e db3c 466c db3c bcd7 293c
00000020: dee5 7f3b 8f91 fc3b 5995 a53c 8a6f 363d
00000030: f799 a5ba 456b 0f3d 6e17 cfbc 5d4c f2bc
00000040: a867 0c3c 7656 f9bb b897 2bbd 4678 303d
00000050: 9a0c 093c efe3 90bb b4b3 f63c 147c babb
00000060: ecd6 2c3d 4e84 3b3d 86bb 2dbc e9aa 323d
00000070: 6cbc 163c 2fec 5ebd 66c4 253c 2ad8 ac3c
00000080: 0d4c 8bbc c8fe 90bc d9ed 6ebc e8bf 80bc
00000090: e2b6 febc 22fa 883c 5f5b 83bb f9a0 8ebb
000000a0: c1a5 273c 7db4 35bd 357b f13c 28da 91bc
000000b0: 81bd 933c 5d25 9abc bbef 163d 4692 28bd
000000c0: a771 833c 7574 6ebc ba3f 1cbc b3bd 123d
000000d0: 24b3 583b 449c 603c 9c3e 2dbb 6172 e5bb
000000e0: 8ece 843c 374f ef3c 72d5 5cbc 3d1d b7bc
000000f0: ad10 f53c 3832 b53c 5f6d a13c 3f0e d03b
00000100: 97ca 0d3d 07e5 92ba b189 adbc f984 c2bc
00000110: 575b afbc 39a3 c4ba 4bc3 92bc 00b3 8fbc
00000120: 754a 11bd 426b bfbc 14e2 9c3c b721 923c
00000130: 36dd 2f3c e6e8 1c3d cd77 56bb b5aa 6dbc
00000140: 4114 803c 2889 8b3c 7026 f4bc 981a 46bd
00000150: 352e e1bc f56a 8d3c 85ba 5f3c eb68 813c
00000160: 078c 9abc 6185 183c d8b8 0bbc fad0 9d3c
00000170: 155f 8abb fec5 af3c 2440 91bb 71e2 a1bb
00000180: e7e0 413b ed2e a33c ee14 623b 7df9 23bd
00000190: ef81 a03c db8f c8bc ca33 113d 967b 6b3c
000001a0: 7f5e ef3b f865 033d 4dd3 363c e8a4 613c
000001b0: ffc0 843b 4bde 3abd 3039 f83c 30de ff3c
000001c0: 8d6e bbbc 96fa a23b ae9c 2bbc 5515 2bbd
000001d0: 4fb2 d93c abc9 5dbc 8910 2abd df24 b8bc
000001e0: 063e 7cbc 81b2 67bc c5e1 09bd 7d41 9ebc
000001f0: 40bc ecba 8847 193d eee3 b43c e357 47bb
00000200: 2c91 0bbd a3ed b33c 9050 93bb 595e a0bc
00000210: 152b 1fbb 29e1 2c3c 38db cdbc ef53 0abd
00000220: cc6a fdbb bdf7 823c 6485 c13b 072f 0d3b
00000230: 01af 01bd f904 a0bc 2065 02bd ea76 833a
00000240: 3d52 013d e767 7d3b 2370 abbb 2e14 9bbc
00000250: 452f dbba ec31 e5bc ecd8 0a3d 1176 cdbc
00000260: a5d4 3d3c a946 c8bc 2fb6 883c 0184 2d3d
00000270: 67ff 373b 8020 7c38 155e ee3c d60e f5bc
00000280: 7c03 123c 9ea8 8fbc a94b 033c d6f3 3f3c
00000290: 0216 edbb dd72 d93c 5304 083d ba97 02bd
000002a0: 2292 e73b d37b e13a 564f 3e3d 76d1 193b
000002b0: 5893 ed3c 5d5a 243c 7c78 9abc d581 53bc
000002c0: 1d2a 0fbd 2c81 1ebd 3d48 f73c cee5 433c
000002d0: f640 863c d1e0 0a3b 957b f6bb 6ddf 08bd
000002e0: c9dd 143d 477c f2bc f77c e93c e2ba b13b
000002f0: 755a 01bd 7ef2 e03c 68f3 873c 7da9 32bd
00000300: 95c6 bf3a 33c3 1fbd 1c25 c73b 5e6b b43c
00000310: 25ea d33b ec96 2a3c 86e9 333d fbaa bb3c
00000320: 4c3d cbbc 4861 7bbc c513 a9bc 32be 01bd
00000330: 7661 213d 4d97 913b e758 9b3c aadd db3b
00000340: 31dd 92bc 65fa 443a f7ad 503c 59bc 24bd
00000350: 60cb 49bd 4baf 193d 84a5 a13b b510 0dbd
00000360: 0545 9dbc 2c7c 77bc 4534 4dbc c633 bd3a
00000370: 44d2 253b f965 d33b 5104 4dba cbbc 113d
00000380: feb6 6b3a 9ff6 0e3c 6cd3 21bd 7c6b 26ba
00000390: c0f3 653c a686 003d 6616 18bc 5372 a0b9
000003a0: b069 e5bc d3df c0bc 6b9b ce3c 1f49 9f3c
000003b0: 1982 b03c 5be8 20bb 5830 0ebd db43 9a3c
000003c0: 144f c1bc d2b4 febc 54ef eabc cab6 dc3c
000003d0: 6d20 e9bc b3de 90bc 0e65 123d ffdd 8c3b
000003e0: 701b c53c 21bd f8bc 17d9 033c 9c83 aa3c
000003f0: efab b53c 2f7d 2cbd 548f 103c 6f15 d3bc

w_a_005 f4 [2, 768]
0.0037578444 0.03173687 0.020112347 0.02085268 -0.011390362 0.008467405 -0.0063056024 0.035363935
0.042587988 -0.012264874 -0.017750947 -0.0074366652 -0.013187838 0.016721668 0.026285838 -0.0037096653
0.044231545 -0.027068093 0.026135622 -0.037544183 0.03235345 -0.010480613 0.0403585 0.020393176
-0.028115885 0.0171761 -0.035004675 -0.022491341 -0.028940342 0.02092195 0.011087069 0.03438383
0.03634514 0.016974814 0.038485684 0.03124747 0.010683787 0.019901508 0.04698134 0.010974657
0.014794904 -0.02847815 0.018279543 0.00979557 0.04626901 0.030687334 4.7215526e-06 0.029275648
-0.011097985 0.041039634 -0.04699325 -0.020764358 -0.042482343 -0.037384324 -0.00657002 -0.01449817
0.02672195 -0.024297465 -0.008015089 -0.0039021578 -0.009908391 -0.045244236 -0.012191908 0.00468279
-0.025189146 -0.042296987 -0.020726906 0.023627253 -0.03548716 0.040693577 0.0471964 -0.001369194
-0.012232855 -0.028006954 0.022771843 0.025620451 0.0018358203 -0.014886146 -0.009390575 0.032804295
-0.04837792 0.037194725 0.014609456 -0.007599267 0.00046046454 -0.013417888 -0.0045395666 -0.0166444
0.0060418933 -0.0041315495 -0.04422285 0.03637308 -0.021010041 -0.024248252 -0.03641004 0.012924367
-0.022693414 -0.0071661985 0.029639607 -0.019988243 -0.022455914 0.05035926 -0.03564502 -0.003112366
0.046066806 0.0016683147 -0.018301826 0.0017571463 -0.041916665 -0.015048766 0.0047743153 -0.019367607
0.0041770316 -0.023285868 -0.04040349 0.018320773 0.012108692 -0.020085227 -0.0047351075 -0.014827064
-0.03694638 -0.005967914 -0.039009124 0.02038356 -0.05059611 0.00796701 0.035450783 0.021984184
-0.0104135405 0.035185907 0.0039581666 0.007922351 -0.01979741 -0.030394116 -0.0016529289 0.0037081584
-0.015729902 -0.010119247 -0.012496447 -0.014681553 -0.018373897 -0.020338483 -0.023406288 -0.010894942
0.028045164 -0.0029376482 0.014671103 -0.0060232114 -0.017510422 -0.038847942 -0.008225403 0.01364139
-0.02296082 -0.02308653 -0.045971036 -0.040980313 0.016796617 -0.000588062 -0.0087691685 0.046285205
0.042988863 0.033486456 -0.020744577 -0.016796736 0.0032066538 0.021404574 0.00037140044 0.043716826
0.012614656 -0.04997098 0.013583182 0.04538992 -0.024396513 0.018858805 0.02790859 -0.0055718003
0.039031547 0.012760841 0.00737425 -0.014161911 -0.0154886665 -0.012173691 -0.050807983 -0.030312587
-0.007703765 -0.012986789 0.022637885 -0.006100193 -0.017499803 -0.009618872 -0.025809068 -0.040461443
-0.0134339295 0.01815835 0.0059699262 -0.012486183 0.043844912 0.028088072 -0.015720448 -0.028770803
-0.021472795 -0.043076172 -0.0025148739 0.012299412 0.0057193646 -0.018179702 0.00355791 -0.0040783854
0.005085689 0.0092369085 -0.010167716 -0.0036651047 0.040614724 0.0060009263 0.02056198 0.031929187
0.04256816 0.0064300797 0.018735012 -0.024385815 -0.04196184 -0.004255934 -0.016770165 0.021246053
-0.017210828 -0.003363509 -0.0061321915 0.05015426 0.036070142 0.008913306 -0.042206116 -0.0074405847
-0.005836577 0.029937606 -0.042107403 -0.00014650349 0.03755118 0.01494409 -0.049746003 0.032164887
-0.0057235756 -0.038953084 0.006697224 -0.049047302 0.018296065 -0.0025584106 -0.015301615 0.020316167
-0.011314335 0.022372846 0.033013716 0.0080939885 0.027532915 -0.01580352 0.004518576 0.0102440305
00000000: 2b46 763b 85fe 013d a6c2 a43c 3dd3 aa3c
00000010: a49e 3abc dfba 0a3c 3a9f cebb c6d9 103d
00000020: be70 2e3d 9cf2 48bc 6f6a 91bc 45af f3bb
00000030: cd11 58bc e1fb 883c 6655 d73c db1d 73bb
00000040: 232c 353d e8bd ddbc 5f1a d63c eec7 19bd
00000050: 0d85 043d e1b6 2bbc f44e 253d 970f a73c
00000060: 4953 e6bc e4b4 8c3c 1061 0fbd c33f b8bc
00000070: 4c14 edbc 8264 ab3c 8aa6 353c 0fd6 0c3d
00000080: a4de 143d c40e 8b3c 2aa3 1d3d b2fa ff3c
00000090: 0d0b 2f3c 7d08 a33c 816f 403d 0ccf 333c
000000a0: 5366 723c 024b e9bc fbbe 953c 997d 203c
000000b0: 9384 3d3d 0164 fb3c d46d 9e36 7cd3 ef3c
000000c0: 53d4 35bc 2d19 283d fe7b 40bd 041a aabc
000000d0: f701 2ebd 4e20 19bd 5349 d7bb bc89 6dbc
000000e0: fee7 da3c 7a0b c7bc b851 03bc 58bb 7fbb
000000f0: ce56 22bc 0552 39bd 92c0 47bc 1772 993b
00000100: 7859 cebc 9b3f 2dbd 79cb a9bc f18d c13c
00000110: fc5a 11bd 4fae 263d 0351 413d 8776 b3ba
00000120: 506c 48bc d76e e5bc 048c ba3c fbe1 d13c
00000130: e89f f03a 06e5 73bc edda 19bc cc5d 063d
00000140: ed27 46bd 7f59 183d 805c 6f3c 4603 f9bb
00000150: 816a f139 b4d6 5bbc a5c0 94bb d659 88bc
00000160: 13fb c53b f361 87bb 0523 35bd f0fb 143d
00000170: 401d acbc 45a4 c6bc b222 15bd b9c0 533c
00000180: 8ae7 b9bc 6ed2 eabb c3ce f23c 62be a3bc
00000190: 77f5 b7bc 8345 4e3d 8300 12bd d6f8 4bbb
000001a0: 8cb0 3c3d 5aab da3a b6ed 95bc 0c50 e63a
000001b0: cfb0 2bbd 198f 76bc dc71 9c3b d1a8 9ebc
000001c0: 7bdf 883b 01c2 bebc 217e 25bd 7215 963c
000001d0: 8963 463c c689 a4bc f628 9bbb 37ed 72bc
000001e0: 1655 17bd 7e8e c3bb 08c8 1fbd 6cfb a63c
000001f0: de3d 4fbd 1088 023c d734 113d 2d18 b43c
00000200: 8e9d 2abc 191f 103d 82b3 813b c0cc 013c
00000210: 2e2e a2bc 15fd f8bc 17a7 d8ba 9304 733b
00000220: ffdb 80bc 33cb 25bc e6bd 4cbc e58a 70bc
00000230: db84 96bc e49c a6bc 8bbe bfbc b380 32bc
00000240: f9be e53c 8f85 40bb 115f 703c 5c5e c5bb
00000250: 0472 8fbc 051f 1fbd d7c3 06bc 2380 5f3c
00000260: 5418 bcbc f61f bdbc 204c 3cbd f9da 27bd
00000270: 0f99 893c 2c28 1aba 8fac 0fbc 8e95 3d3d
00000280: 1715 303d 1829 093d 88f0 a9bc 4f99 89bc
00000290: b926 523b a558 af3c 86b8 c239 6a10 333d
000002a0: b4ad 4e3c 5fae 4cbd ff8b 5e3c c8ea 393d
000002b0: 32db c7bc c87d 9a3c 8ea0 e43c a693 b6bb
000002c0: 8bdf 1f3d d912 513c b1a3 f13b 5c07 68bc
000002d0: 2dc4 7dbc 2974 47bc 081c 50bd 1a52 f8bc
000002e0: dd6f fcbb 8bc6 54bc 1673 b93c 21e4 c7bb
000002f0: bf5b 8fbc 7998 1dbc 8a6d d3bc e6ba 25bd
00000300: fc19 5cbc d2c0 943c 5f9f c33b d992 4cbc
00000310: b996 333d f518 e63c 2bc8 80bc bfb0 ebbc
00000320: b7e7 afbc a470 30bd 95d0 24bb 7983 493c
00000330: 8269 bb3b 99ed 94bc d32b 693b faa3 85bb
00000340: daa5 a63b 6756 173c 7e96 26bc 4132 70bb
00000350: a05b 263d 6ba3 c43b 9971 a83c 2ec8 023d
00000360: f35b 2e3d 6bb3 d23b 2b7a 993c c3c4 c7bc
00000370: 2ee0 2bbd 5d75 8bbb 9661 89bc 340c ae3c
00000380: b9fd 8cbc 516e 5cbb 8df0 c8bb 8e6e 4d3d
00000390: 49be 133d 1d09 123c 52e0 2cbd 26d0 f3bb
000003a0: c240 bfbb b63f f53c d078 2cbd bb9e 19b9
000003b0: 44cf 193d 0ed8 743c 77c2 4bbd 54bf 033d
000003c0: d58c bbbb 458d 1fbd 6374 db3b d3e5 48bd
000003d0: a1e1 953c 02ab 27bb a0b3 7abc 176e a63c
000003e0: c35f 39bc 4247 b73c 6439 073d a69c 043c
000003f0: b58c e13c 6276 81bc 9010 943b 94d6 273c

w_a_006 f4 [2, 768]
0.019376574 -0.01913826 0.0033605108 -0.010172476 0.01628781 0.01643476 -0.033729132 -0.04199464
0.010016287 0.01335276 0.027226137 -0.016389532 0.040902693 -0.03372684 -0.013731074 0.054683045
0.030125398 0.035004064 0.05642398 -0.014271072 0.008231207 0.0512079 -0.002643026 0.0020647738
-0.018999087 -0.011682912 0.042385973 -0.009824076 -0.010331222 0.0024222776 -0.04562376 -0.0136509845
0.0034204163 0.014692816 -0.014526869 0.034686573 -0.006683749 -0.045585528 -0.0057987813 0.004859858
-0.0038246706 -0.030336099 0.05187141 0.021709193 -0.042574003 -0.033432737 0.009948471 0.015248423
-0.047497682 0.001643164 -0.016378796 -0.020745087 -0.0095076235 -0.015236528 0.016471606 -0.007745602
0.019262651 -0.012938692 0.04121628 0.0033955493 0.017858285 -0.039786313 -0.018512461 -0.0052450662
0.0084480755 -0.007346015 0.005927807 -0.02741005 -0.047338255 0.015198341 -0.005235354 0.033240043
-0.0023554892 0.029274104 0.023754178 0.048761114 -0.001141605 -0.038974307 0.0033106601 -0.042370725
0.0069050253 -0.001547988 0.053069174 -0.0005979813 -0.026996939 -0.025553923 -0.015231287 -0.020926228
0.018057924 0.0073596123 0.013762993 0.031892758 0.029138798 -0.010952845 -0.041756354 0.023947991
-0.032065284 -0.031830877 0.02116222 -0.030150473 0.016853005 0.015954098 -0.039470095 -0.039442796
0.04382657 -0.004866674 -0.042712145 -0.0055653728 -0.02122919 0.029207377 0.035514906 0.019868065
0.006067368 0.039090782 -0.05091031 -0.026857024 0.011721339 -0.02278927 -0.02101146 0.011241598
-0.027969508 -0.033283655 0.00794777 0.017776104 -0.0054562665 0.0068406207 0.009988443 -0.010668981
-0.0024861612 0.02185272 -0.051200233 -0.007495782 -0.034130987 -0.012327082 -0.002962783 9.2239396e-05
-0.016463507 -0.020299723 -0.019791987 -0.021949168 -0.01157688 0.024855629 0.0043549594 -0.01535306
-0.019174242 -0.020190477 -0.021701543 0.015295403 0.02172018 0.001311485 -0.00022642092 0.028665343
0.0025179642 0.038104765 0.031399056 -0.021682035 0.03217034 0.029021714 0.03935397 -0.033485938
-0.035605844 -0.032129608 0.004906018 -0.03819663 0.043951593 -0.02198262 -0.0029941064 0.025339954
0.00040636578 0.0062072803 -0.01093 0.007748334 0.0008083176 -0.018018618 0.03705938 -0.025651209
0.0021702328 -0.015736574 -0.016000362 -0.017729627 -0.022930663 0.011840556 -0.0053485297 -0.017669925
-0.02009106 -0.023969978 -0.00044603067 -0.03753053 0.014199417 -0.037053496 -0.00584273 -0.0011858457
0.014592036 0.025740055 -0.03755804 -0.010761393 0.029476792 0.008072667 -0.002232764 0.015057956
0.01969113 0.0021117744 0.01874152 0.0071413647 -0.0109086465 -0.0042391033 0.043156218 0.029337656
0.0035207362 0.035502333 0.02266299 0.05208485 -0.0151134655 0.020522093 0.043515824 -0.0076696156
0.03501781 -0.0101920115 -0.0023285327 -0.00042083845 -0.03898967 -0.041939087 0.015525986 -0.0015972492
0.011436691 -0.0065525165 -0.017303066 0.0042393208 -0.0020273363 -0.018253163 -0.042126235 0.027647479
0.047611225 -0.03129476 0.008107801 0.005608058 0.041260857 0.009424164 -0.038453527 0.0053931754
-0.0071024178 -0.0076908716 -0.015877854 0.0026231552 0.008127171 -0.002684632 -0.03611848 0.016456764
-0.015743421 -0.019540269 -0.039314006 0.0006682928 0.0127903335 0.013976509 -8.317708e-05 0.01775599
00000000: 9fbb 9e3c d7c7 9cbc 043c 5c3b 75aa 26bc
00000010: 036e 853c 31a2 863c 8f27 0abd 9202 2cbd
00000020: 5a1b 243c 89c5 5a3c 5909 df3c 5743 86bc
00000030: 9589 273d 2825 0abd 4cf8 60bc 54fb 5f3d
00000040: 8ac9 f63c 6c60 0f3d d51c 673d 37d1 69bc
00000050: 2fdc 063c 60bf 513d 9e36 2dbb 2851 073b
00000060: f9a3 9bbc af69 3fbc ea9c 2d3d 29f5 20bc
00000070: 4944 29bc 13bf 1e3b fbdf 3abd 61a8 5fbc
00000080: 1029 603b 23ba 703c 1b02 6ebc 8213 0e3d
00000090: 5a03 dbbb e4b7 3abd b403 bebb 723f 9f3b
000000a0: 53a7 7abb 6983 f8bc 1e77 543d 7ad7 b13c
000000b0: 1462 2ebd c4f0 08bd e9fe 223c 86d4 793c
000000c0: ee8c 42bd 6f5f d73a d32c 86bc 9af1 a9bc
000000d0: ddc5 1bbc a1a2 79bc 76ef 863c d2ce fdbb
000000e0: b5cc 9d3c cffc 53bc 67d2 283d dd87 5e3b
000000f0: 8a4b 923c f9f6 22bd 72a7 97bc cede abbb
00000100: cc69 0a3c d7b6 f0bb 0d3e c23b 0b8b e0bc
00000110: c2e5 41bd 7602 793c 558d abbb b626 083d
00000120: 8d5e 1abb 3fd0 ef3c 1f98 c23c bcb9 473d
00000130: e8a1 95ba 86a3 1fbd a9f7 583b ed8c 2dbd
00000140: 8d43 e23b dce5 caba 105f 593d d9c1 1cba
00000150: af28 ddbc 7656 d1bc a68c 79bc 7b6d abbc
00000160: 36ee 933c e728 f13b 2d7e 613c fba1 023d
00000170: 7db4 ee3c 9073 33bc b608 2bbd 942e c43c
00000180: e356 03bd 1861 02bd 645c ad3c 20fe f6bc
00000190: 500f 8a3c 2bb2 823c 65ab 21bd c58e 21bd
000001a0: 7d83 333d 9f78 9fbb eef2 2ebd bb5d b6bb
000001b0: d7e8 adbc 4f44 ef3c 1478 113d 5ac2 a23c
000001c0: c6d0 c63b a81d 203d 5487 50bd 4303 dcbc
000001d0: dc0a 403c 90b0 babc 3a20 acbc ae2e 383c
000001e0: 4f20 e5bc 7154 08bd 5d37 023c 319f 913c
000001f0: 7bca b2bb 4927 e03b 91a6 233c f3cc 2ebc
00000200: ddee 22bb 7a04 b33c 56b7 51bd 2d9f f5bb
00000210: efcc 0bbd 88f7 49bc 402b 42bb a670 c138
00000220: 7ade 86bc 9b4b a6bc ce22 a2bc bece b3bc
00000230: f4ac 3dbc 089e cb3c 0cb4 8e3b 678b 7bbc
00000240: 4d13 9dbc 8066 a5bc 6fc7 b1bc 9299 7a3c
00000250: 85ee b13c 22e6 ab3a 676b 6db9 95d3 ea3c
00000260: 6e04 253b be13 1c3d 4c9c 003d 869e b1bc
00000270: 0cc5 033d f2be ed3c a131 213d 8d28 09bd
00000280: 6fd7 11bd 569a 03bd a9c2 a03b 1274 1cbd
00000290: 9606 343d e514 b4bc c538 44bb bc95 cf3c
000002a0: 7e0d d539 7166 cb3b be13 33bc bde5 fd3b
000002b0: 47e5 533a c89b 93bc 94cb 173d 7c22 d2bc
000002c0: 773a 0e3b fde9 80bc 3113 83bc b93d 91bc
000002d0: 16d9 bbbc e4fe 413c b842 afbb 85c0 90bc
000002e0: 0296 a4bc b05c c4bc 39d9 e9b9 9db9 19bd
000002f0: aca4 683c 68c5 17bd 5f74 bfbb 616e 9bba
00000300: 6f13 6f3c cfdc d23c 76d6 19bd 8e50 30bc
00000310: 5079 f13c 3843 043c 9053 12bb a5b5 763c
00000320: 4b4f a13c b265 0a3b d187 993c 1c02 ea3b
00000330: 2eba 32bc 2de8 8abb 93c4 303d 8655 f03c
00000340: 27bc 663b e56a 113d bca7 b93c ec56 553d
00000350: 789e 77bc f31d a83c a63d 323d 6651 fbbb
00000360: d66e 0f3d 65fc 26bc 4c9a 18bb fba3 dcb9
00000370: a2b3 1fbd 52c8 2bbd b560 7e3c ca5a d1ba
00000380: f560 3b3c 7eb6 d6bb 29bf 8dbc 00ea 8a3b
00000390: 0fdd 04bb a887 95bc 8f8c 2cbd f77c e23c
000003a0: fd03 433d ef2e 00bd 95d6 043c cdc3 b73b
000003b0: 2501 293d cf67 1a3c 7281 1dbd 3cb9 b03b
000003c0: 66bb e8bb b503 fcbb 4612 82bc 3ee9 2b3b
000003d0: d327 053c a7f0 2fbb f9f0 13bd 56d0 863c
000003e0: 59f8 80bc ea12 a0bc b907 21bd 5f30 2f3a
000003f0: 8c8e 513c bafd 643c 5b6f aeb8 0375 913c
