lora_weights/lora_rank6.safetensors (safetensors, 888240 bytes, 48 tensors)

w_a_000 f4 [6, 768]
0	0x3d3941b6	0.045228682
1	0xbcbf3471	-0.023340436
2	0xbcae9454	-0.021310963
3	0xbc93d6f5	-0.018046835
4	0x3cb5b892	0.022182737
5	0x3cc6db91	0.02427462
6	0xbcc12773	-0.023578381
7	0x3cbf19ef	0.023327796
8	0x3cad696f	0.021168439
9	0x3cc7d9d5	0.024395863
10	0xbcb9c650	-0.02267757
11	0x3c063cb5	0.008193185
12	0x3c9ad704	0.018901356
13	0x3cc6095d	0.024174387
14	0xbc23714e	-0.009975744
15	0xbcab5f66	-0.020919513
16	0xbc084d4b	-0.008319209
17	0xbc773296	-0.015087744
18	0xbd03aa21	-0.03214467
19	0xbc7eab6e	-0.015543802
20	0x3c242fbf	0.010021149
21	0xbc98737c	-0.018609755
22	0xbd062a98	-0.032755464
23	0x3b2ac1c3	0.0026055432
24	0x3ce20068	0.027588084
25	0x3cf5dd14	0.030012645
26	0x3be4bbd8	0.0069804005
27	0x3cdbd24f	0.026833681
28	0x3c818bfd	0.015813822
29	0xbc5205d3	-0.012818771
30	0xbcd2ca8a	-0.025731344
31	0xbbc92912	-0.006138929
32	0x3cc31424	0.023813315
33	0xbd22678b	-0.039649528
34	0x3d244615	0.040105898
35	0xbca2f9ba	-0.01989447
36	0x3cd2cc7f	0.025732277
37	0x3c97a08f	0.018509177
38	0xbcb09c13	-0.021558797
39	0x3c78e5fc	0.015191551
40	0x3ca6a3a7	0.020341707
41	0x3c88c793	0.016696727
42	0xbc3c4f51	-0.01149352
43	0xbc2041d7	-0.009781322
44	0x3b9e800b	0.0048370413
45	0x3ce5e00f	0.028060941
46	0xbd0edb47	-0.034877088
47	0xbc585c3d	-0.013205585
48	0x3cc58b4f	0.02411428
49	0xbcd96c39	-0.026540862
50	0x3c6bd76f	0.014394625
51	0x3c7ad53f	0.015309631
52	0x3c6287d9	0.013826334
53	0xbc39118d	-0.011295688
54	0xbccdfd16	-0.025145095
55	0xbd241d39	-0.04006693
56	0x3c93f54b	0.0180613
57	0xbc6c089c	-0.0144063495
58	0x3cfdef18	0.030997798
59	0xbb32c0d6	-0.0027275584
60	0xbb7143c4	-0.0036814073
61	0x3be1920f	0.0068838666
62	0xbc527288	-0.012844689
63	0xbbcf7e85	-0.006332221
64	0x3b6ae190	0.0035840012
65	0xbd07e802	-0.033180244
66	0x3d082e58	0.03324732
67	0x3caded33	0.02123127
68	0xbb17e4fc	-0.0023177257
69	0x3baf2a88	0.0053456463
70	0xbcc29c78	-0.02375625
71	0x3cec6c1d	0.028860146
72	0xba3b3d3b	-0.0007142608
73	0x3cc81b41	0.024427058
74	0xbcc5b391	-0.024133475
75	0x3cde61c0	0.02714622
76	0xbbed5cc8	-0.0072437264
77	0xbb78c47c	-0.003795891
78	0xbbedc2f1	-0.007255905
79	0x3c313199	0.010815048
80	0x3cbe53a6	0.023233246
81	0x3d092ea8	0.03349176
82	0x3a9912b0	0.0011678543
83	0x3d21e43a	0.039524294
84	0x3c98f4a3	0.01867134
85	0xbc02038e	-0.007935418
86	0x3d0d27d2	0.034461804
87	0x3c35a5b9	0.011086875
88	0x3c8a6e1b	0.016898206
89	0x3b61e269	0.0034467226
90	0xb8854712	-6.355172e-05
91	0xbbd6b3f5	-0.0065522143
92	0xbcb180aa	-0.021667797
93	0x3c8dc8cc	0.017307661
94	0xbc316a4d	-0.010828567
95	0xbca4028b	-0.020020744
96	0xbba1b3b2	-0.0049347514
97	0xbb959e12	-0.0045659626
98	0x3cc94711	0.02457002
99	0xbbfd6b6b	-0.0077337525
100	0xbd0ec51a	-0.03485594
101	0xbacfc649	-0.001585194
102	0xbc733f42	-0.014846625
103	0x3c4c86b9	0.012483292
104	0xba3e4a27	-0.00072589744
105	0xbbec1127	-0.007204193
106	0xbd3c1556	-0.045918785
107	0x3b501a1f	0.003175385
108	0xbcd0cfb9	-0.025489675
109	0xbcc498e5	-0.023998687
110	0xbc41dc32	-0.011832284
111	0x3cb515b6	0.02210508
112	0x3ac44890	0.0014975239
113	0xbb1b8baa	-0.002373437
114	0x3c85d093	0.016334808
115	0xbb8e9953	-0.0043517738
116	0xbcd46987	-0.025929226
117	0x3cba6513	0.022753274
118	0xbc3ac902	-0.011400463
119	0x3cd64022	0.026153628
120	0xbb432264	-0.0029775137
121	0xbbcdf209	-0.0062849564
122	0xbcb699d4	-0.022290148
123	0x3c825f79	0.015914666
124	0xbd0f97e5	-0.035056967
125	0x3c957a1c	0.018246703
126	0x3c1166b1	0.008874581
127	0xbcbddf66	-0.023177814
128	0x3d386e53	0.04502709
129	0xbca7a705	-0.020465383
130	0xbceb5b95	-0.028730193
131	0xbc907a61	-0.01763648
132	0x39b06636	0.0003364549
133	0xbce04b75	-0.02737973
134	0x3ca5475b	0.020175627
135	0xbbc6a8bf	-0.0060625966
136	0xb9143994	-0.0001413583
137	0xbc285097	-0.01027312
138	0x3b159966	0.0022827028
139	0x3c2fff25	0.010741984
140	0x3b51c71e	0.0032009552
141	0xbbf7527e	-0.0075476756
142	0x3cd5f9fc	0.026120178
143	0xbc0f0717	-0.008729718
144	0xbd00681b	-0.031349283
145	0x3cf5850b	0.029970666
146	0xbb1b9ed7	-0.00237458
147	0x3ccabf9c	0.02474957
148	0x3b0d2377	0.0021536031
149	0xbc845633	-0.016154384
150	0x3cadb50b	0.021204492
151	0x3c7e8d57	0.015536628
152	0xbae3876e	-0.0017359087
153	0xbc1bc52d	-0.00950746
154	0x3d0a871c	0.033820257
155	0xbcb0774e	-0.021541264
156	0xbc2fc6ad	-0.01072852
157	0xbd18aa68	-0.037271887
158	0xbd116b84	-0.035502926
159	0xbcf0802e	-0.029357996
160	0x3d2dc43e	0.04242348
161	0xbd1cff7d	-0.03832959
162	0x3d00ca92	0.031443186
163	0x3cfbc47d	0.030733341
164	0xbcb205c1	-0.02173126
165	0x3cb003bf	0.021486161
166	0x3d0c340a	0.034229316
167	0x3c616a88	0.013758309
168	0xbc2d64b7	-0.010583094
169	0xbd0511e1	-0.032487754
170	0x3cb09cc4	0.021559127
171	0x3cbf51a0	0.023354352
172	0x3c450df5	0.012027253
173	0x3cf0cc77	0.029394371
174	0xbcaa6d71	-0.020804139
175	0xbb957e69	-0.0045621884
176	0xbc2506ba	-0.0100724045
177	0x3c1b9df1	0.009498105
178	0xbc82fced	-0.015989745
179	0x3cf4daff	0.029889582
180	0x3ceb67ab	0.028735956
181	0x3c32bd40	0.0109093785
182	0x3ca6f96e	0.02038261
183	0xbc832c57	-0.016012354
184	0xbcbc7f43	-0.023009902
185	0xbc2b14cf	-0.010441973
186	0x3b73c03a	0.0037193433
187	0x3c86dcdc	0.016462736
188	0x3ccd0deb	0.02503105
189	0x3c902629	0.017596321
190	0xbd2b5ce7	-0.041836645
191	0x3d1a9a1d	0.03774463
192	0xbc85749c	-0.016290955
193	0x3c63b740	0.013898671
194	0x3c3c64cc	0.011498641
195	0x3d1679b9	0.036737178
196	0x3d33413d	0.043763388
197	0x3c06de82	0.008231761
198	0xbc9cfbd2	-0.019163046
199	0xbc3f2563	-0.0116666285
200	0x3cf1cf55	0.029517809
201	0xbcc1ca9f	-0.023656188
202	0xbd393a49	-0.0452216
203	0x3c45d6b3	0.012075114
204	0xba352f14	-0.0006911617
205	0x3cd5725d	0.02605551
206	0xbd02f299	-0.03196964
207	0x3c880aa9	0.016606646
208	0x3c2b3778	0.0104502365
209	0x3ae21062	0.0017247314
210	0x3d06c971	0.032906953
211	0xbce31328	-0.027719095
212	0x3c52b1ab	0.012859742
213	0x3c86b615	0.016444245
214	0xbc5b553c	-0.013387021
215	0x3c99d39f	0.018777667
216	0x3c030145	0.007995908
217	0xbd0163b2	-0.031589217
218	0xbc7aa287	-0.015297539
219	0xbd1b96d2	-0.03798563
220	0xbd110e3d	-0.03541397
221	0x3d349e3e	0.044096224
222	0x3cf1a3c8	0.029497042
223	0xbcea58fa	-0.02860688
224	0x3d0e7b0e	0.034785323
225	0x3d21afb7	0.039474215
226	0xbd274cbe	-0.04084467
227	0xbd2c21d1	-0.042024437
228	0xbd13a792	-0.03604848
229	0xb8c3a884	-9.329713e-05
230	0xbc9d540b	-0.019205114
231	0xbca2a6a0	-0.019854844
232	0xbd198f2d	-0.03749006
233	0xbb7af699	-0.0038293956
234	0xbc4d1ac3	-0.0125185875
235	0xbca58d17	-0.020208878
236	0x3b72686f	0.0036988517
237	0x3c755df0	0.01497601
238	0x3bd96cdb	0.006635291
239	0x3c0cc58a	0.008592019
240	0xbbdcff01	-0.006744266
241	0x3bcf7f39	0.006332305
242	0xbcb2217f	-0.021744488
243	0x3be86b68	0.007092882
244	0x3cca5ebf	0.024703382
245	0x3ca452f3	0.020059085
246	0xbb112707	-0.0022148506
247	0xbb2f2735	-0.002672625
248	0x3c0edfce	0.008720351
249	0x3d130f53	0.035903286
250	0xbcb549f9	-0.02213
251	0x3c599b2c	0.013281625
252	0xbc38deea	-0.011283616
253	0xbaf7bc50	-0.0018900726
254	0x3ce92727	0.028461052
255	0x3ccc7433	0.024957752

w_a_001 f4 [6, 768]
0	0x3cdaa859	0.026691603
1	0xbd31840f	-0.04333883
2	0x3c3d335e	0.011547891
3	0xbcb40f99	-0.021980094
4	0x3bbfe0e6	0.0058556674
5	0x3d087224	0.033311978
6	0xbc91b375	-0.017785767
7	0xbc3a0d2e	-0.011355681
8	0xbccb9502	-0.024851326
9	0x3cc849b3	0.024449205
10	0x3c386d98	0.011256598
11	0xbc9fa5ce	-0.019488242
12	0x3a5fee2e	0.00085422664
13	0x3c958b4b	0.018254897
14	0xbcb5bf5f	-0.02218598
15	0xbb173295	-0.002307092
16	0x3d0f12c9	0.034930024
17	0xbc06ba30	-0.0082231015
18	0xbc9281c1	-0.017884137
19	0xbcc387c2	-0.023868445
20	0xbc9a1eff	-0.018813608
21	0xbc564542	-0.013078036
22	0xbc5b9a23	-0.013403448
23	0xbcb59bd8	-0.022169039
24	0x3c970a62	0.018437568
25	0xbb2862ba	-0.0025693611
26	0xbce4fa66	-0.02795143
27	0x3cf83572	0.030298922
28	0xbcf226b5	-0.029559473
29	0xbcd59c4a	-0.026075501
30	0x3c473e94	0.012160916
31	0xbc97385f	-0.018459497
32	0x3d1ea415	0.0387307
33	0xbc99a617	-0.018755956
34	0x3ce45b65	0.027875612
35	0x3d24be34	0.040220454
36	0xbb79a322	-0.003809162
37	0xbcc51260	-0.024056613
38	0xb8cda407	-9.805714e-05
39	0x3b7d0b41	0.0038611444
40	0x3caa4124	0.020783015
41	0xbcf21284	-0.029549845
42	0x3c944759	0.018100427
43	0xbbbb899a	-0.0057231905
44	0xbd0a7526	-0.033803128
45	0xbbe52ebd	-0.006994097
46	0xbc1d8f98	-0.009616755
47	0x3a538ee5	0.0008070304
48	0xbccdffbb	-0.025146356
49	0x3c3b2fc6	0.011424964
50	0x3ce7178f	0.028209476
51	0xbd23b612	-0.039968558
52	0xbc80a54b	-0.015703818
53	0x3cabe23d	0.020981902
54	0xbbb203e2	-0.005432592
55	0xbbca9698	-0.006182503
56	0xbcba9c63	-0.02277965
57	0x3c1607fe	0.009157179
58	0xbce613b5	-0.028085569
59	0x3c0326c9	0.008004853
60	0xbc9ee3f7	-0.019395811
61	0xbc53827f	-0.012909531
62	0x3b10c8e6	0.00220924
63	0x3cc8a163	0.024491018
64	0x3c99f79f	0.018794833
65	0xbbe3b673	-0.00694924
66	0x3c48850e	0.012238754
67	0x3b3983a2	0.002830722
68	0xbc241eab	-0.010017077
69	0xbc8798bd	-0.016552323
70	0xbcc5dc09	-0.024152773
71	0xbcc6f7ca	-0.024288077
72	0xbbc003ea	-0.0058598416
73	0xbc9cae8f	-0.019126205
74	0x3cec45ff	0.02884197
75	0xbc6d21db	-0.014473404
76	0x3cca460e	0.024691608
77	0x3c9058a0	0.017620385
78	0xbc25a21b	-0.01010945
79	0xbccc3ad7	-0.0249304
80	0x3babdc0f	0.005244739
81	0x3d1b45d8	0.037908405
82	0x3d1e1e76	0.03860327
83	0xbc507ff3	-0.012725818
84	0xbbd6b01b	-0.006551755
85	0xbd08e720	-0.033423543
86	0xbd0d8303	-0.03454877
87	0x3c58f5f8	0.013242237
88	0xbbe2d121	-0.0069219028
89	0x3c5e83fd	0.013581273
90	0x3ca157ea	0.019695241
91	0x3ca295d9	0.019846844
92	0xba054f23	-0.00050853397
93	0xbccf7df9	-0.025328623
94	0xbc84ddd6	-0.01621906
95	0xbc84523f	-0.0161525
96	0x3d1df27a	0.03856132
97	0x3c8898a6	0.016674351
98	0xbc80147d	-0.01563477
99	0xbce1b876	-0.027553778
100	0x3cba3c71	0.022733899
101	0xbcb60445	-0.022218833
102	0x3c8ba417	0.017046018
103	0xbd35a535	-0.044347007
104	0x3c40efdb	0.011775936
105	0x3ccbde2b	0.024886211
106	0xbd016aea	-0.0315961
107	0x3d3276bc	0.043570265
108	0x3cb3b9a7	0.021939112
109	0x3ce09ef0	0.027419537
110	0x3ced8cf6	0.02899788
111	0x3cd1b77c	0.025600187
112	0x3c9ca418	0.019121215
113	0x3cf8e1b5	0.030381063
114	0xbb08950b	-0.002084079
115	0x3cd2f746	0.025752675
116	0x3cc7fcd2	0.024412546
117	0xbd0066cf	-0.031348046
118	0xbc2205e7	-0.009889103
119	0x3cf4da8b	0.029889366
120	0xbad8f11f	-0.0016551352
121	0x3ca0e163	0.019638723
122	0x3c7dc888	0.015489705
123	0xbd27698a	-0.040872134
124	0xbbc66fe4	-0.006055819
125	0x3bc3589b	0.0059614903
126	0x39af147e	0.0003339387
127	0x3c928440	0.017885327
128	0xbca6f5d9	-0.020380901
129	0xbcbb8724	-0.022891589
130	0x3c441ef3	0.0119702695
131	0xbc476300	-0.0121695995
132	0xbc794b53	-0.015215713
133	0xbd27b7e1	-0.040946845
134	0x3cf8f1d2	0.030388746
135	0xbc61a2a5	-0.013771688
136	0x3d031efc	0.03201197
137	0xbcbdc9e7	-0.023167564
138	0xbcbd0c5a	-0.023077179
139	0xbbaf363e	-0.0053470423
140	0x3bc39a91	0.0059693535
141	0x3c375b7e	0.011191247
142	0xbc7daeee	-0.015483601
143	0xbcde0bf4	-0.02710531
144	0xbcb6ae77	-0.022299988
145	0xba37f3e5	-0.0007017239
146	0xbd3648aa	-0.04450289
147	0x3c53b8c8	0.012922473
148	0xbd0fe0be	-0.03512644
149	0x3c8c9cf3	0.017164683
150	0x3d290f92	0.041274615
151	0xbd0c7c73	-0.03429837
152	0x3cedde0a	0.02903654
153	0xbce23145	-0.027611384
154	0x3d037a9b	0.032099348
155	0x3c969297	0.018380446
156	0x3cfb8d6d	0.030707086
157	0xbd08f56c	-0.033437178
158	0xbcf34a29	-0.029698448
159	0x3c8516a9	0.016246157
160	0x3cd06ee1	0.025443496
161	0x3cb37615	0.021906892
162	0x3d374757	0.04474577
163	0x3c26ecfb	0.0101883365
164	0xbce6de9b	-0.028182318
165	0xbbb74616	-0.0055930717
166	0xbbf0ab6b	-0.0073446534
167	0xbd0ddd94	-0.03463514
168	0xbd12f8da	-0.035881855
169	0xbc9ed804	-0.019390114
170	0x3c89ab71	0.016805382
171	0xbc4f144f	-0.012639119
172	0x3c010ea2	0.007877024
173	0x3cb1fa2b	0.021725735
174	0x3cd4fcba	0.025999416
175	0xbcd8a07c	-0.026443712
176	0xbd2cb498	-0.042164415
177	0xbc3a69c2	-0.011377754
178	0x3d1f5068	0.03889504
179	0xbcb578fc	-0.022152416
180	0x3c158b03	0.009127381
181	0x3c6d64d8	0.014489375
182	0xbcadecb3	-0.021231031
183	0xbcec93e1	-0.028879108
184	0x3cc39fd9	0.023879932
185	0x3be74af7	0.007058497
186	0xbcd18d50	-0.025580078
187	0xbd044cd5	-0.032299835
188	0xbc576d2b	-0.013148586
189	0xbd2c28b5	-0.04203101
190	0xbb2f754e	-0.00267728
191	0xbbd45754	-0.006480137
192	0xba35b6fa	-0.00069318677
193	0x3cf9002a	0.030395586
194	0x3caaddcb	0.020857712
195	0xbc8ea63f	-0.017413257
196	0x3c031fb3	0.008003163
197	0xbcb7e3d6	-0.022447508
198	0xbd1856e3	-0.037192237
199	0xbc00a025	-0.007850681
200	0x3a4a3c7b	0.0007714701
201	0x3d097ab7	0.033564296
202	0x3b92acac	0.0044761505
203	0xbc1a97d9	-0.009435617
204	0xbc475645	-0.012166564
205	0xbbcab2a4	-0.0061858464
206	0xbcf86436	-0.030321222
207	0xbd102ae9	-0.035197172
208	0xbcd762aa	-0.026292164
209	0xbd132ec9	-0.03593329
210	0x3d205433	0.0391428
211	0x3cd7a1d3	0.026322281
212	0x38b87754	8.79603e-05
213	0x39784fbf	0.00023680831
214	0xbb106ad6	-0.0022036335
215	0x3d2ee882	0.042702205
216	0xbc4b21d3	-0.012398201
217	0xbc3c98a4	-0.011511002
218	0x3cfac65f	0.030612169
219	0x399485f7	0.0002832857
220	0xbabb49eb	-0.0014288997
221	0x3c6b6da2	0.0143694
222	0x3ba6c236	0.0050890697
223	0xbb7724c1	-0.0037711116
224	0x3cf84c28	0.030309752
225	0x3c7c9bd1	0.015418009
226	0x3aa8c29e	0.0012875383
227	0xbc567b6a	-0.013090948
228	0xbd014e97	-0.03156909
229	0x3d090904	0.033455864
230	0x3cc31ae7	0.023816539
231	0xbc746eb6	-0.014918974
232	0x3b531031	0.0032205696
233	0x3c996af9	0.018727766
234	0x3bc321af	0.005954943
235	0xbc1a2177	-0.009407393
236	0xbc8d5b72	-0.017255519
237	0x3d09f9e5	0.033685584
238	0xbb928086	-0.0044708876
239	0x3ba23498	0.0049501173
240	0xbcd0b9f4	-0.025479294
241	0xbc8fcd45	-0.017553935
242	0x3a25481d	0.0006304996
243	0x3d262194	0.040559366
244	0x3cee1777	0.029063923
245	0x3d26a7b3	0.040687274
246	0x3cae57e4	0.021282144
247	0x3ca0cc0d	0.019628549
248	0x3c93b88e	0.018032338
249	0x3ad76046	0.001643189
250	0x3d23ff46	0.04003837
251	0xbc201f19	-0.009773039
252	0x3cb4f938	0.022091493
253	0x3cba9c63	0.02277965
254	0xbbf3d9e6	-0.007441747
255	0x3ca00947	0.019535674

w_a_002 f4 [6, 768]
0	0x3d39b2b9	0.04533646
1	0xbc84df8b	-0.016219875
2	0x3b23fcdf	0.002502255
3	0xbd07a295	-0.033114035
4	0xbd153fa6	-0.036437653
5	0xbcb98090	-0.022644311
6	0x3c77c280	0.015122056
7	0x3b39963c	0.0028318306
8	0x3bc98c9d	0.0061507956
9	0x3c8d7f91	0.017272742
10	0xbd33247c	-0.043735966
11	0x3cc5543b	0.024088016
12	0x3d07ec77	0.033184495
13	0x3d0710cf	0.032975014
14	0x3cfa6079	0.03056358
15	0xbd063be5	-0.032771964
16	0x3a024cc7	0.0004970547
17	0xbcf03ed3	-0.029326832
18	0x3b25784c	0.0025248704
19	0xbbdacc5c	-0.0066771936
20	0x3d2fa002	0.042877205
21	0x3d120cf2	0.035656877
22	0x3c90d363	0.017678922
23	0x3cfda877	0.03096412
24	0x3c285e6f	0.010276421
25	0x3a6f4598	0.0009127497
26	0x3cbd6c8d	0.02312305
27	0xbb48d7c8	-0.0030646194
28	0x3d1fc28e	0.0390039
29	0xba1d5ab5	-0.0006002591
30	0xbc59f71a	-0.0133035425
31	0x3cba9a2b	0.022778591
32	0xbbf83488	-0.0075746216
33	0x3d07cefb	0.033156376
34	0x3c3b7104	0.011440519
35	0x3cd92b53	0.026509916
36	0x3cc44d19	0.023962544
37	0x3c27182d	0.010198635
38	0x3ca24552	0.019808445
39	0xb77071b2	-1.43315865e-05
40	0x3d1e3f99	0.03863487
41	0x3c285bf6	0.010275831
42	0xbcd0627b	-0.025437584
43	0xbb34ec6b	-0.0027606736
44	0xbc853f9b	-0.016265681
45	0xbcf47203	-0.029839521
46	0x3d3ccedb	0.04609571
47	0xbcef8439	-0.029237853
48	0x3c0b642c	0.00850777
49	0x3beefc67	0.0072932723
50	0xbd2003ec	-0.03906624
51	0xbca94f69	-0.020667749
52	0x3c79d67c	0.015248891
53	0xbbda3631	-0.006659292
54	0x3b9fb188	0.0048734583
55	0x3ce48d13	0.0278993
56	0xbba872a7	-0.0051406207
57	0xbbcc14a1	-0.006228045
58	0xbd2bdfcb	-0.041961472
59	0x3ccb969c	0.02485209
60	0xbc974e1d	-0.018469865
61	0x3ceddceb	0.029036006
62	0x3b1a7377	0.0023567358
63	0x3bc8d167	0.0061284783
64	0xbd1478dd	-0.036248077
65	0xbd21d786	-0.03951218
66	0x3d327d34	0.043576434
67	0xbd5497b7	-0.0519025
68	0x3cacf50d	0.021112943
69	0x3d2166ff	0.039404865
70	0x3d1b2139	0.03787348
71	0xbb63e02d	-0.003477107
72	0x3c862990	0.01637724
73	0xbcf9fa1b	-0.030514767
74	0xbb9bbcc5	-0.0047527277
75	0xbbc1252f	-0.005894325
76	0x3b0191d3	0.0019770756
77	0xbd1e15bd	-0.03859495
78	0x3d266383	0.040622246
79	0xbc7ae31e	-0.015312938
80	0xbd166330	-0.036715686
81	0xbc8dcb0f	-0.01730874
82	0xbcb45bb4	-0.022016384
83	0xbbe6b02a	-0.0070400434
84	0xbcd33327	-0.025781227
85	0xba81699b	-0.0009873392
86	0xbced1d9d	-0.028944785
87	0x3c90d1c4	0.017678149
88	0xbc99c4ea	-0.018770654
89	0xbc2c9252	-0.010532932
90	0xbcb81004	-0.022468574
91	0x3a750004	0.00093460106
92	0xbb422411	-0.0029623548
93	0x3b2d3ef4	0.0026435228
94	0x3caa08bd	0.02075612
95	0x3c6d4004	0.014480595
96	0xbcfefdbe	-0.031126853
97	0xbcaeefda	-0.021354605
98	0xbca512dc	-0.020150594
99	0x3c39befd	0.011337039
100	0x3ce4440c	0.027864479
101	0xbb07ccb4	-0.0020721378
102	0xbd439514	-0.047749594
103	0x3bd9d3c8	0.0066475607
104	0x3bab064e	0.0052192574
105	0x3d09036a	0.03345052
106	0x3c1f46cf	0.009721472
107	0xbc33d0a4	-0.010975037
108	0x3d38170a	0.044943847
109	0x3cba1d58	0.02271907
110	0xbce1c627	-0.027560307
111	0x3cb675a7	0.022272898
112	0xbc5d8bcd	-0.013522101
113	0x3cda66d7	0.026660366
114	0x3b668469	0.0035174137
115	0x3b4d0907	0.0031285898
116	0xbd0028c4	-0.031288877
117	0x39ff664a	0.000487136
118	0xbd19842d	-0.03747957
119	0xbc6c15a7	-0.014409459
120	0xbc924104	-0.017853267
121	0xbc7bbb25	-0.015364443
122	0x3bbcf03e	0.005765944
123	0x3c8237a0	0.015895665
124	0x3d1359f8	0.035974473
125	0x3d1e3a2e	0.038629703
126	0xbc827974	-0.015927054
127	0xbd00b911	-0.031426493
128	0xbc1af54e	-0.009457899
129	0xbb2a44af	-0.002598088
130	0x3cc3a859	0.023883985
131	0xbc6b0db5	-0.01434653
132	0x3c801b46	0.015638005
133	0xbcda3b30	-0.02663955
134	0xbcebac06	-0.02876855
135	0xbd1b6f1c	-0.03794776
136	0xbc1dec92	-0.009638922
137	0x3cefed46	0.029287945
138	0xbc7c8e5f	-0.015414803
139	0x3c863b16	0.016385596
140	0xbc8a5592	-0.016886506
141	0xbcf98449	-0.030458586
142	0xbcc1c63b	-0.023654094
143	0xbaf0cb2f	-0.00183711
144	0x3b356a57	0.0027681792
145	0xbbda8e22	-0.0066697756
146	0x3d2266aa	0.03964869
147	0x3c0681f2	0.008209692
148	0x3ca08404	0.0195942
149	0x3c1bf4a1	0.009518773
150	0xbbf8d9ab	-0.0075943074
151	0xbb1178de	-0.0022197287
152	0x3c8a15e8	0.016856149
153	0xbcd16bb6	-0.025564056
154	0x3b8de5ce	0.0043303734
155	0xbd2881f9	-0.041139577
156	0xbcdea7a7	-0.027179552
157	0x3c1e453c	0.009660061
158	0x3c97a51e	0.018511351
159	0xbce08115	-0.027405301
160	0x3cae0360	0.021241844
161	0xbd254ad1	-0.040354554
162	0xbaf04939	-0.0018332369
163	0xbc87ea3a	-0.01659118
164	0xbcccd744	-0.02500499
165	0x3caa0a73	0.020756936
166	0x3c68d0a9	0.014209905
167	0xbc45435f	-0.012039988
168	0x3be8aa2f	0.0071003656
169	0x3cbb7a78	0.022885546
170	0x3cffa2e0	0.031205595
171	0xbba56caa	-0.005048354
172	0xbc23a942	-0.009989085
173	0x3cb03840	0.021511197
174	0xbc277e80	-0.010223031
175	0x3d32278a	0.04349474
176	0x3bdc8fe9	0.0067310226
177	0xbd2ca56d	-0.04214995
178	0xbd3e5604	-0.04646875
179	0xbc8f8956	-0.017521542
180	0xbbff37f9	-0.007788655
181	0xbcd827b1	-0.026386114
182	0xbc6ebd0a	-0.014571438
183	0x3cd51194	0.026009358
184	0x3c26b7c0	0.010175645
185	0xbc3ae172	-0.011406289
186	0x3c563d02	0.013076069
187	0x3d295ff2	0.041351266
188	0x3c181fcb	0.009284924
189	0x3c4a7e4b	0.012359212
190	0x3c3f6d0b	0.011683713
191	0xbc49352e	-0.012280745
192	0xbcae311f	-0.021263657
193	0xbd35fe66	-0.044432066
194	0xbc741b81	-0.014899136
195	0xbd170de8	-0.036878496
196	0xbc8f69c8	-0.017506495
197	0xbc816123	-0.015793389
198	0xbc93a6e1	-0.01802391
199	0xbcbed846	-0.023296487
200	0xbca6ef83	-0.02037788
201	0x3c725885	0.0147916125
202	0x3cc16b02	0.023610596
203	0xbc555bd9	-0.0130223865
204	0xbd366879	-0.044533227
205	0xbc1a6f44	-0.009425942
206	0xbcdc15fe	-0.026865955
207	0xbd024c23	-0.03181089
208	0xbc456960	-0.012049049
209	0xbcad25b1	-0.021136137
210	0xbb0499bc	-0.0020233234
211	0x3b403491	0.0029328207
212	0xbc9ff937	-0.019528015
213	0x3cb6245b	0.022234133
214	0xbd28b459	-0.041187618
215	0x3c9530e4	0.01821179
216	0x3c00c11c	0.007858541
217	0x3bd56f6d	0.006513527
218	0xbbc5db9e	-0.0060381433
219	0xbbeb5426	-0.007181662
220	0xbb47ab20	-0.0030466989
221	0x3c28059b	0.010255243
222	0x3c84a176	0.016190272
223	0x3d1c7e5e	0.03820645
224	0x3be411ca	0.0069601284
225	0x3c5b184d	0.013372493
226	0xbb8cb5f3	-0.004294151
227	0x3d2f81a1	0.042848233
228	0x3cb5ff27	0.022216393
229	0xbcc330c5	-0.023826966
230	0xbc8d8b27	-0.017278267
231	0x3d19c0fd	0.037537564
232	0xba997cd6	-0.0011710178
233	0x3b5871a1	0.0033026712
234	0xbc0a1233	-0.008427191
235	0x3b8fa2a1	0.0043834005
236	0xbcf80cc2	-0.03027952
237	0x3c4418e4	0.011968825
238	0x3c7b6255	0.015343268
239	0x3c7cdb5c	0.015433159
240	0x3cca762c	0.024714552
241	0xbcc09d0b	-0.023512384
242	0xbd214bb0	-0.03937882
243	0xbc5e9ceb	-0.013587217
244	0xbcdd22bb	-0.0269941
245	0xbc941c54	-0.018079914
246	0xbbf5d4ce	-0.007502175
247	0xbb1420dc	-0.0022602594
248	0xbcb41a25	-0.021985123
249	0x3d22441c	0.039615735
250	0xbd1ecb67	-0.0387682
251	0x3cd5c30b	0.02609398
252	0xbc9dcf22	-0.019263808
253	0x3d1e429d	0.038637746
254	0x3bc17525	0.0059038573
255	0xbc9253ea	-0.017862279

w_a_003 f4 [6, 768]
0	0xbcc48525	-0.02398927
1	0xbd1f327f	-0.038866516
2	0x3c3bcb71	0.011462078
3	0x3c10ee60	0.0088458955
4	0x3d48cecd	0.049025346
5	0x3c2a6def	0.010402187
6	0x3d2a72f9	0.041613553
7	0xbc04d8a5	-0.008108293
8	0x3cd015a7	0.02540095
9	0x3c8321ea	0.016007382
10	0x3d197bfc	0.037471756
11	0xbd375d67	-0.04476681
12	0xbc448a59	-0.011995875
13	0xbd2b4dc5	-0.041822214
14	0x3bddc3e0	0.006767735
15	0x3c0ec75c	0.008714523
16	0xbc9785dd	-0.018496448
17	0xbb904de3	-0.004403816
18	0x3c22d3ab	0.009938161
19	0xbc44eacf	-0.012018873
20	0x3c1a51d2	0.009418922
21	0x3a85fa99	0.0010221779
22	0x3bb9b097	0.005666803
23	0xbd1f01a1	-0.038819913
24	0xbc410992	-0.011782067
25	0x3d0ddaea	0.0346326
26	0xbca31500	-0.019907475
27	0x3bce0587	0.00628728
28	0xbb5aa19f	-0.0033360494
29	0xbc891f32	-0.016738508
30	0xbba476b8	-0.005019035
31	0xbce99fd3	-0.028518593
32	0xbcacddc1	-0.021101834
33	0x3c472061	0.012153716
34	0x3c8b62ca	0.01701488
35	0xbb76de29	-0.003766904
36	0x3cb43998	0.02200012
37	0x3d2531de	0.04033076
38	0xbcb9a0b7	-0.022659643
39	0x3cdc71bd	0.026909703
40	0x3ae5e1e4	0.0017538634
41	0xbbc2a5bf	-0.0059401686
42	0x3cc80d70	0.02442047
43	0xb9ab12b6	-0.00032629602
44	0xbb870807	-0.00412083
45	0x3c639438	0.013890319
46	0x3cd9d609	0.026591318
47	0x3d2550f1	0.040360395
48	0x3ce14510	0.027498752
49	0x3cb06ab8	0.021535262
50	0x3d1418f8	0.036156625
51	0x3ca702bd	0.020387048
52	0x3c86a7c8	0.016437426
53	0xbceb889c	-0.028751664
54	0xbc8a1fd2	-0.016860876
55	0x3c71c3cf	0.014756157
56	0x3c856eec	0.016288243
57	0xbc3d8162	-0.011566492
58	0x3c866486	0.016405355
59	0xbb564d05	-0.0032699716
60	0x3d109e75	0.035307366
61	0x3b1f98b1	0.0024352486
62	0xbd1cebac	-0.03831069
63	0xbcaf139d	-0.021371657
64	0x3ce01c5b	0.027357271
65	0x3cbe55c2	0.023234252
66	0x3c5ae758	0.013360821
67	0x3d19337b	0.03740261
68	0xbbda695b	-0.0066653914
69	0xbd100807	-0.035163905
70	0xbae438a0	-0.0017411895
71	0x3bf32ebf	0.007421344
72	0x3c83f1b8	0.016106471
73	0x3a95f08b	0.0011439485
74	0x3c807636	0.015681367
75	0x3cf3fbf6	0.02978323
76	0x3afbb20a	0.001920284
77	0xbcd9a20d	-0.02656653
78	0xbd4535a5	-0.048146863
79	0xbadb1bc7	-0.0016716652
80	0x3d438eed	0.047743727
81	0x3c06de2d	0.008231682
82	0x3d2d319d	0.042283643
83	0xbcc5f344	-0.02416385
84	0xbc0a9c7f	-0.008460163
85	0xbb812017	-0.003940593
86	0x3c1cd97b	0.009573336
87	0xbd06bf79	-0.032897446
88	0x3ba5a826	0.0050554452
89	0x3c08c131	0.008346842
90	0xbcacb1db	-0.021080902
91	0x3ccb7cd5	0.024839798
92	0x3cb86ef5	0.022513846
93	0xbc8aa553	-0.016924536
94	0xbcd425e2	-0.02589697
95	0xbd45816c	-0.04821913
96	0x3d417291	0.0472284
97	0x3cb6e2ef	0.022325007
98	0xbc7dbbe4	-0.015486691
99	0x3bae42ce	0.0053180223
100	0xbd1deb63	-0.03855456
101	0xbd1e641f	-0.0386697
102	0x3cfa07e8	0.030521348
103	0xbc81f63f	-0.01586449
104	0x3c57fbdb	0.013182606
105	0xbc239428	-0.009984054
106	0xbbbc14da	-0.0057397904
107	0xbcae3420	-0.02126509
108	0x3bb8cc34	0.0056395773
109	0x3bc4017d	0.0059816227
110	0xbb8f9d12	-0.004382738
111	0xbc736033	-0.014854479
112	0x3d22ec8a	0.039776362
113	0xbd09ad8d	-0.033612777
114	0x3c9ee9cc	0.019398592
115	0x3cd9dc93	0.026594436
116	0xbb6835bd	-0.003543242
117	0xbc2cf957	-0.010557494
118	0x3c2b77cb	0.010465573
119	0xbc92c22d	-0.017914856
120	0x3cacf8cb	0.021114727
121	0xbbaba0bf	-0.0052376683
122	0xbc8f8dc0	-0.017523646
123	0x3c7c078c	0.015382659
124	0xbc812ce3	-0.015768474
125	0x3c6238f5	0.013807525
126	0xbd33222d	-0.043733764
127	0xbbe81329	-0.007082362
128	0xbd12a1c2	-0.035798796
129	0xbd2c2b82	-0.04203368
130	0xba0b2da5	-0.0005309231
131	0xbd2f0fbf	-0.042739626
132	0x3bd98590	0.0066382363
133	0x3c887f44	0.016662247
134	0x3d1d3893	0.03838403
135	0x3d094e84	0.033522144
136	0x3cb7f554	0.022455849
137	0xbc8d26ca	-0.01723041
138	0x3c8e3fec	0.017364465
139	0xbb16fbc2	-0.0023038243
140	0x3d04ea8b	0.03245024
141	0x3bca453d	0.0061728046
142	0xbc97bd01	-0.018522741
143	0xbcc2a9b4	-0.023762561
144	0xbb9bd5d8	-0.004755717
145	0x3ca83b5e	0.020536121
146	0xbc9ea6e8	-0.019366696
147	0x3c8622c9	0.016374009
148	0xbc27d18e	-0.010242833
149	0x3cf685aa	0.030093033
150	0xbd00319f	-0.031297322
151	0x3c9106a3	0.01770336
152	0xbc516640	-0.012780726
153	0xbc4184fa	-0.011811489
154	0x3c42c3ab	0.011887471
155	0xbc2cc6d2	-0.010545449
156	0x3d14fd27	0.036374237
157	0xbcbe929e	-0.023263272
158	0x3cf54713	0.029941117
159	0x3c15b152	0.009136515
160	0xbb9ecf5f	-0.004846498
161	0xbc4887c8	-0.012239404
162	0xbc843d41	-0.01614249
163	0xbd3f16de	-0.046652667
164	0x3d18c141	0.037293676
165	0xbd2faf3e	-0.042891733
166	0x3d1a64ea	0.037693895
167	0x3a0ca6eb	0.0005365449
168	0xbb9be22b	-0.004757186
169	0xbcfe24ee	-0.031023469
170	0x3bf21df2	0.0073888237
171	0x3cb272bc	0.021783225
172	0xbc2473f4	-0.010037411
173	0x3c840dec	0.01611992
174	0x3d266d94	0.040631846
175	0x3c8e4f1e	0.01737171
176	0x3ca53158	0.02016513
177	0x3c5e5336	0.013569644
178	0x3d311c1c	0.043239698
179	0xbd2e4ea0	-0.04255545
180	0xbd2ec78c	-0.04267077
181	0xbcb42a6c	-0.021992885
182	0x3c5d8456	0.013520321
183	0xbcfdc165	-0.030976007
184	0xbd45466e	-0.04816287
185	0xbcd55dee	-0.026045766
186	0xbc51d047	-0.012806005
187	0xbd3a8c5b	-0.04554401
188	0xbce1399f	-0.027493296
189	0x3c0eb02c	0.008708995
190	0xbb225bbe	-0.002477392
191	0xbc729013	-0.014804858
192	0xbcac7ded	-0.02105614
193	0x3c8be9aa	0.017079193
194	0xbcd11e99	-0.025527285
195	0x3d39f886	0.045403026
196	0x3bd3be20	0.0064618737
197	0xbb6c7742	-0.0036081825
198	0x3d192b48	0.03739479
199	0xbd221d01	-0.03957844
200	0xbd055e05	-0.032560367
201	0xbc0565a0	-0.008141905
202	0x3bd6e83f	0.0065584476
203	0x3c12adfb	0.008952613
204	0xbc398f76	-0.011325708
205	0x3c85eb4e	0.016347554
206	0x3cafb68a	0.021449346
207	0x3c0c8b76	0.008578172
208	0x3c44e252	0.01201685
209	0x3bfa61b0	0.00764104
210	0x3cc0040d	0.023439432
211	0x3d0651b9	0.03279278
212	0x3d389ae7	0.0450696
213	0xbb2c9420	-0.0026333407
214	0xbc18e331	-0.00933151
215	0x3cec14cd	0.028818512
216	0x3c9df62b	0.019282421
217	0x3c65426f	0.01399289
218	0x3c98f005	0.018669138
219	0x39f6d141	0.00047076683
220	0xbb42c4a5	-0.002971926
221	0xbc52d698	-0.012868546
222	0xbb8e7c82	-0.0043483386
223	0xbcb965ed	-0.02263161
224	0xbc8994d3	-0.016794598
225	0x3cf2fb4f	0.029660849
226	0x3cf28d41	0.02960837
227	0xbbc80da3	-0.0061051412
228	0xbb59fbd3	-0.0033261671
229	0x3d38a22a	0.045076527
230	0xbbad958e	-0.0052973693
231	0xbc991111	-0.018684896
232	0x3c808ed9	0.015693115
233	0x3d00cca6	0.031445168
234	0xbd26fd2d	-0.04076879
235	0x3be072de	0.0068496307
236	0x3d27e3da	0.04098878
237	0xbbc8eba3	-0.0061316057
238	0xbced03f7	-0.028932555
239	0xbbb3142b	-0.0054650507
240	0x3c9e1be5	0.01930041
241	0xba9928f7	-0.0011685182
242	0xbc310dbf	-0.0108065
243	0x3c462108	0.012092836
244	0x3b8b3a27	0.0042488757
245	0xbcb42c46	-0.021993767
246	0x3d14832f	0.03625792
247	0x3c08cf8f	0.008350267
248	0x3d2a6e3d	0.041609038
249	0x3c7a3f1b	0.015273835
250	0x3c02cf30	0.007983968
251	0x3b51696a	0.00319537
252	0x3c1dbd96	0.00962772
253	0xbd476ca9	-0.04868761
254	0x3c2b242b	0.010445635
255	0x3d2191f0	0.039445817

w_a_004 f4 [6, 768]
0	0xbc866dfd	-0.016409868
1	0xbcfc9032	-0.030830476
2	0x3c83e4ab	0.016100248
3	0xbd248434	-0.04016514
4	0xbd341807	-0.043968227
5	0x3d29a503	0.041417133
6	0x3ca5e3bf	0.0202502
7	0x3c89d7f9	0.016826617
8	0xbc8b2e55	-0.016989866
9	0x3c635c55	0.013876994
10	0x39e53912	0.00043720804
11	0xbc0d2a33	-0.008616018
12	0xbd316fb2	-0.04331941
13	0x3cb272d9	0.02178328
14	0xbc587e1b	-0.01321366
15	0x3bd26e2e	0.006421826
16	0xbc83f588	-0.01610829
17	0xbc67b115	-0.014141341
18	0xbcd58ee0	-0.026069105
19	0x3d0d3607	0.034475353
20	0x3c957225	0.018242905
21	0xbc35038b	-0.011048208
22	0xbca85132	-0.02054653
23	0x3cdc18a6	0.026867222
24	0x3d170da8	0.036878258
25	0xbc99456b	-0.018709859
26	0xbc46d959	-0.012136781
27	0x3d260ad6	0.040537678
28	0x3cf04971	0.029331895
29	0xbc98b856	-0.018642586
30	0x3cf05e51	0.029341849
31	0x3c6b83ad	0.014374656
32	0xbb8c98d4	-0.0042906795
33	0xbd06f350	-0.032946885
34	0xbbd0f53b	-0.00637689
35	0x3ba61199	0.005068016
36	0xbd0c26e5	-0.03421678
37	0x3c86de96	0.01646356
38	0x3c93999d	0.018017584
39	0x3d1acd20	0.03779328
40	0x3d37f7b1	0.04491395
41	0x3cfaa657	0.030596895
42	0xbbbc9db4	-0.0057561044
43	0xbc4e210b	-0.01258112
44	0xbd011d1d	-0.031521905
45	0xbcf1379d	-0.029445464
46	0xba0cfc7f	-0.0005378201
47	0x3cb3f911	0.02196935
48	0x3cf3ea2f	0.029774753
49	0x3bce4cc7	0.0062957737
50	0xbc6d54c1	-0.014485539
51	0xbd043f9a	-0.032287218
52	0x3cd41b47	0.025891913
53	0xbbab22f1	-0.005222671
54	0xbb8181ee	-0.0039522564
55	0x3ca5c54d	0.020235682
56	0xbcea3189	-0.028588073
57	0x3d05f173	0.032700967
58	0xbd07aba6	-0.03312268
59	0xbcad0b5e	-0.021123584
60	0xb9d25953	-0.00040120873
61	0xbc98d32f	-0.018655388
62	0xbad89321	-0.001652334
63	0xbd413b8b	-0.047175925
64	0xbb61b2e2	-0.0034438898
65	0xba576219	-0.0008216217
66	0xbcc0fee3	-0.02355904
67	0x3cf553d2	0.029947195
68	0x3c198f76	0.009372583
69	0x3c2c1e8a	0.010505328
70	0xbcd546be	-0.026034709
71	0x3a01a11a	0.00049449655
72	0xbc315001	-0.010822297
73	0x3cbc505d	0.022987539
74	0x3bc0c2c2	0.005882592
75	0x3c0d7d86	0.008635884
76	0xbced85cd	-0.028994465
77	0x3cbae81a	0.022815753
78	0x3d2275d7	0.039663162
79	0x3c868a9a	0.016423512
80	0xbca512dd	-0.020150596
81	0x3c719df8	0.014747135
82	0x3c766fdd	0.015041319
83	0xbcd66984	-0.02617336
84	0x3d1bdbdf	0.038051482
85	0x3ca4a67d	0.020098919
86	0x3b83033d	0.003998189
87	0xbcb84205	-0.022492418
88	0xbcc0902a	-0.023506243
89	0xbc8d68f5	-0.017261961
90	0x3ce42753	0.027850782
91	0x3b52e032	0.0032177088
92	0xbcf92967	-0.03041525
93	0xbb8f51db	-0.0043737716
94	0xbbf9120f	-0.0076010297
95	0xbc9ecad3	-0.019383823
96	0x3cf350e1	0.029701652
97	0xbd25d198	-0.040483087
98	0x3b8ee824	0.0043611694
99	0xbbbe38aa	-0.0058050947
100	0x3d0d8e4a	0.034559526
101	0xbd2727a2	-0.04080928
102	0x3d26815c	0.04065071
103	0xbc0a1436	-0.00842767
104	0xbad02553	-0.0015880264
105	0x3d1adf35	0.037810523
106	0x3be16729	0.0068787527
107	0xbc9d389c	-0.019192033
108	0xbbe0e307	-0.0068630013
109	0x3bc83f65	0.006111073
110	0x3b6b1604	0.0035871277
111	0x3c3ea02c	0.011634868
112	0x3ca95cbe	0.020674106
113	0x3c3823a9	0.011238971
114	0x3d07e242	0.03317476
115	0xbcb5a8ad	-0.022175157
116	0xba55003e	-0.0008125341
117	0x3cd5a6c9	0.026080506
118	0xbd3677db	-0.044547897
119	0xbd335ced	-0.043789793
120	0xbc9fd44f	-0.019510416
121	0xba9e6e73	-0.001208736
122	0x3d130e6e	0.035902433
123	0xbce2f707	-0.027705682
124	0x3ccaad41	0.024740817
125	0x3d3526b1	0.044226352
126	0xbc5e610b	-0.0135729415
127	0x3cf44585	0.029818306
128	0xbd2b39c5	-0.04180314
129	0x3ca1bc0e	0.019742992
130	0xbb2c4314	-0.00262851
131	0xbc928115	-0.017883817
132	0xbb5bb9ee	-0.003352757
133	0x3cdee66d	0.027209485
134	0x3c142593	0.0090421615
135	0x3c999754	0.018748917
136	0xbc061ad3	-0.008185106
137	0x3cf5ebcd	0.030019665
138	0x3b95d991	0.004573055
139	0x3c9e57b1	0.019328924
140	0xbcc07ce9	-0.023497062
141	0xbcd77d8b	-0.02630498
142	0x3c04f0a0	0.00811401
143	0x3b87f709	0.004149322
144	0xbce5169f	-0.027964888
145	0xbd0e2412	-0.034702368
146	0x3d188692	0.03723771
147	0x3caf3b7e	0.021390673
148	0xbc878003	-0.016540533
149	0x3ccb4d03	0.024816995
150	0xbcf1c4f3	-0.029512858
151	0x3c889ada	0.016675401
152	0xbc972d6d	-0.018454278
153	0xbcdf5831	-0.027263733
154	0x3c355d59	0.011069619
155	0x3c9613de	0.01832002
156	0x3c28eb99	0.010310077
157	0xbcc77a81	-0.024350407
158	0x3c8fb35f	0.017541585
159	0xbd050ee2	-0.032484896
160	0xbbe292bc	-0.0069144648
161	0xbcd75bf3	-0.026288962
162	0xbd48ee31	-0.049055282
163	0x3bcc7079	0.0062389937
164	0xbd4356d5	-0.04769023
165	0x3bcde263	0.006283091
166	0x3cfe7042	0.031059388
167	0xbbac3d90	-0.0052563623
168	0xbb7c9c91	-0.003854547
169	0xbc756c21	-0.014979393
170	0x3d03b0ac	0.03215091
171	0xbd1716c1	-0.036886934
172	0xbc873eee	-0.0165095
173	0xbb15a035	-0.0022831087
174	0x3c813269	0.015771108
175	0x3c65ed32	0.014033603
176	0x3ca29bbc	0.01984965
177	0x3ca97d0a	0.020689506
178	0xbcab0f75	-0.020881394
179	0x3c2c956c	0.010533672
180	0xbafba940	-0.0019200221
181	0x3adf6e92	0.0017046502
182	0xbc6187d7	-0.013765297
183	0x3ae4a848	0.0017445171
184	0xbc03bd8b	-0.008040796
185	0x3d1850c3	0.037186395
186	0xbcbbad3d	-0.022909755
187	0x3ca173be	0.01970851
188	0x3c0752b6	0.008259466
189	0x3cdc2038	0.026870832
190	0x3d3473b4	0.044055656
191	0x3d1e8de1	0.038709525
192	0x3c167592	0.009183304
193	0xbd18000b	-0.037109416
194	0xbcf61816	-0.030040782
195	0xbc8088e7	-0.01569028
196	0xbb960906	-0.0045787124
197	0xbd083299	-0.03325138
198	0xbac64bc2	-0.0015128779
199	0x3c258df1	0.010104642
200	0x3b8a62be	0.004223197
201	0x3c20df2d	0.009818834
202	0x3bf3d799	0.0074414727
203	0x3cb0563b	0.021525493
204	0xbca62bc7	-0.020284547
205	0xbca909dd	-0.020634586
206	0x3c2a88a6	0.010408556
207	0xbb986f5e	-0.004651948
208	0xbbc4d029	-0.00600626
209	0xbd0dab57	-0.03458723
210	0x3bc58778	0.006028112
211	0xbce3a2d1	-0.027787598
212	0xbc57d808	-0.013174064
213	0xbc6ebda6	-0.014571583
214	0xbd1d7942	-0.03844572
215	0x3ceac094	0.028656282
216	0x3b3a3ae3	0.0028416447
217	0xbd3839ce	-0.044977
218	0xbd051f71	-0.032500688
219	0xbc9fad73	-0.019491887
220	0xbc9b3c16	-0.01894955
221	0xb9d7c67d	-0.0004115588
222	0x3c12e87a	0.00896656
223	0xbca4aeef	-0.020102946
224	0xbd38586d	-0.045006204
225	0xbb0187c5	-0.0019764763
226	0x3b28c272	0.0025750664
227	0x3ae5ea5a	0.0017541156
228	0xbca359b4	-0.019940235
229	0x3ca28234	0.019837476
230	0x3c2db0cd	0.010601235
231	0xbd1633de	-0.03667056
232	0xbc2e4399	-0.010636234
233	0xbc4206d3	-0.011842447
234	0x3c3dc90f	0.011583581
235	0xb73c7e19	-1.1235033e-05
236	0xbd469648	-0.048483163
237	0xbc9e6497	-0.019335074
238	0x3d353b5a	0.044246055
239	0xba6df1cb	-0.00090768625
240	0xbcfa574f	-0.03055921
241	0xbc292ee4	-0.010326121
242	0x3c4be77f	0.01244533
243	0x3bc51185	0.0060140514
244	0xbca85d94	-0.020552434
245	0xbd1c6489	-0.038181815
246	0x3bbb4265	0.005714702
247	0xbcc0e1c5	-0.023545155
248	0x3c1da604	0.009622101
249	0xbb53a2c4	-0.003229306
250	0xbc8b8cd2	-0.017034922
251	0x3be9ee0a	0.007138972
252	0x3ca459ac	0.02006229
253	0x3c543719	0.012952589
254	0xbd21efe5	-0.039535422
255	0x3ce0f2b6	0.027459484

w_a_005 f4 [6, 768]
0	0xbc868d00	-0.016424656
1	0x3c69533a	0.014241034
2	0x3d2dfc70	0.04247707
3	0x3c964a8a	0.01834609
4	0xb9cafb00	-0.00038715452
5	0xbab4cff4	-0.0013794885
6	0x3cada099	0.021194743
7	0x3cb290b8	0.021797523
8	0xbb0ffa84	-0.0021969387
9	0x3c2f865b	0.010713185
10	0xbd37c160	-0.04486215
11	0xbc538541	-0.012910188
12	0xbd261962	-0.04055155
13	0xbba66673	-0.005078131
14	0x3b9deab3	0.004819238
15	0xbd340ef0	-0.043959558
16	0xbd1563e9	-0.036472235
17	0xbc8df197	-0.017327113
18	0x3c96a901	0.018391134
19	0xbcd12553	-0.025530493
20	0xbd15873d	-0.036505926
21	0xbc925e58	-0.017867252
22	0x3cb402c3	0.021973973
23	0x3d0c616f	0.034272607
24	0x3bb4052a	0.0054937797
25	0x3bfef19e	0.007780268
26	0x3d1fe02c	0.039032146
27	0x3b9cdb31	0.004786872
28	0x3c33b03c	0.0109673105
29	0x3c36c95d	0.011156407
30	0x3b19ceba	0.0023469166
31	0xbd3c7893	-0.046013426
32	0xbd24ad98	-0.040204614
33	0x3d05d8d2	0.03267748
34	0xbd1cc7f9	-0.038276646
35	0xbd362b40	-0.04447484
36	0xbd2d0203	-0.042238247
37	0xbd050e74	-0.032484487
38	0x3bb1b585	0.00542325
39	0xbc8a528b	-0.016885063
40	0x3cfed312	0.031106506
41	0x3c167d60	0.009185165
42	0x3c108519	0.008820795
43	0x3c9b611a	0.0189672
44	0x3b9876e4	0.0046528447
45	0x3c71f32c	0.014767449
46	0xbc596fb3	-0.01327126
47	0x39e32c6d	0.00043329914
48	0x3d2df068	0.042465597
49	0x3c405a91	0.011740343
50	0x3bcab7ce	0.006186462
51	0xbcb70699	-0.022342013
52	0xb9c9e82a	-0.00038510683
53	0xbcdfe599	-0.02733116
54	0x3bb2039a	0.0054325582
55	0x3d09f8e1	0.033684615
56	0xbcba1088	-0.02271296
57	0x3cc2da0a	0.02378561
58	0xbca4b2ad	-0.02010473
59	0xbc955574	-0.018229224
60	0xbc12ef9b	-0.008968259
61	0x3be79e21	0.007068411
62	0x3d38d83c	0.045128092
63	0xbd007080	-0.03135729
64	0x3cdd6a58	0.027028248
65	0x3d0f739a	0.035022356
66	0x3c8b1e78	0.016982302
67	0xbd055f31	-0.032561485
68	0x3d1945a5	0.037419934
69	0xbc9ad954	-0.018902458
70	0x3bd5d7f4	0.0065259878
71	0x3b958dd9	0.0045640287
72	0xbcc40da0	-0.023932278
73	0x3d293e47	0.041319158
74	0xbb48b65a	-0.0030626268
75	0x3cc8cc87	0.024511589
76	0xbce3a71f	-0.02778965
77	0x3d0b40e1	0.03399742
78	0xbb4f3522	-0.0031617363
79	0xbb903eb6	-0.004402007
80	0x3c0df052	0.008663254
81	0xbc93bd8e	-0.018034723
82	0xb9ffbb26	-0.00048776827
83	0xbcb5137f	-0.022104023
84	0xbad33028	-0.0016112374
85	0xbc419a09	-0.01181651
86	0x3d22706b	0.03965799
87	0x3d008ace	0.031382374
88	0xbcce49ee	-0.025181737
89	0xbd17e8f3	-0.037087392
90	0xbc33f710	-0.010984197
91	0xbd1a0be3	-0.037608992
92	0xbcd81634	-0.026377775
93	0x3d31d786	0.04341843
94	0x3b27f642	0.0025628959
95	0x3c0d2812	0.008615511
96	0x3cc045ca	0.023470778
97	0x3b10ab50	0.0022074766
98	0xbccaf7d9	-0.024776386
99	0xbc596c87	-0.013270504
100	0xbc7ee9f3	-0.0155587075
101	0x3af3eb9e	0.0018609648
102	0xbb9d6689	-0.004803483
103	0x3d0c3304	0.03422834
104	0xbd19a1a0	-0.037507653
105	0x3cd9a76e	0.026569095
106	0x3cdd5700	0.027019024
107	0xbd111ae4	-0.035426036
108	0x3b2ea46e	0.00266483
109	0x3b37f443	0.0028069175
110	0x3ced7de9	0.028990703
111	0x3cf20a83	0.029546028
112	0xbbe268a3	-0.0069094463
113	0x3d0f2c91	0.03495461
114	0x3cb3e8c6	0.021961581
115	0x3d1aad30	0.03776282
116	0xbc2cc786	-0.010545617
117	0xbc541cf0	-0.012946352
118	0xbd18dfa1	-0.037322644
119	0xbcfe8b37	-0.031072242
120	0x3c89ced3	0.016822254
121	0x3c5f0a61	0.013613314
122	0x3d009a74	0.031397298
123	0x3c3815c5	0.011235659
124	0x3ccc2de0	0.024924219
125	0x3c3c111c	0.011478689
126	0x3b2014a2	0.002442636
127	0x3c5dd760	0.013540119
128	0xbc89f248	-0.016839162
129	0x3bef8927	0.007310051
130	0x3bd9cef4	0.006646985
131	0xbc1469a8	-0.009058394
132	0x3cd68790	0.026187688
133	0xbb9a344f	-0.0047059427
134	0x3ce0c140	0.027435899
135	0x3d3b4807	0.045722988
136	0x3caa5645	0.02079309
137	0xbafd78c0	-0.0019338354
138	0xbcf389f6	-0.02972887
139	0xba6b6723	-0.0008979907
140	0xbc11f14d	-0.008907628
141	0xbc8fe88e	-0.017566945
142	0x3d42065f	0.047369357
143	0xbc445546	-0.011983221
144	0xbc343e10	-0.011001125
145	0x3c012fad	0.007884902
146	0xbc3b5942	-0.011434855
147	0xbb5cb2f5	-0.0033676003
148	0xbcccaf80	-0.024986029
149	0x3d342614	0.043981627
150	0x3d01dcf8	0.031704873
151	0xbc6ddb38	-0.014517598
152	0x3ce6d525	0.028177807
153	0x3cd0e3f1	0.025499316
154	0x3b3d514e	0.0028887573
155	0x3c5c926a	0.013462642
156	0x3cac92ba	0.021066058
157	0x3c91567e	0.017741438
158	0x3cd6662c	0.026171766
159	0xbbb238e5	-0.0054389113
160	0xbd342167	-0.043977167
161	0xbd13f517	-0.036122408
162	0x3b744a6e	0.003727581
163	0x3cc2ecbb	0.023794523
164	0xbc47b11e	-0.012188224
165	0x3cd39bfa	0.025831211
166	0xbca41f13	-0.020034349
167	0xbcdb7bef	-0.026792495
168	0x3be7125b	0.0070517487
169	0x3cf750f9	0.030189978
170	0x3c437e8d	0.0119320275
171	0xbd1b3aa2	-0.037897713
172	0x3c990e56	0.018683594
173	0x3cbd0526	0.023073744
174	0xbd2c7782	-0.04210616
175	0xbcfbdc70	-0.030744761
176	0x38a92a33	8.066408e-05
177	0xbc7ee590	-0.015557662
178	0x3ccc0491	0.024904521
179	0xbc2368c9	-0.009973713
180	0x3ca3e0f6	0.02000473
181	0xbb07f6aa	-0.0020746388
182	0xbc323ba3	-0.010878476
183	0xbb0ad4e4	-0.0021184022
184	0x3b817df9	0.0039517847
185	0x3cd711db	0.026253631
186	0xbc0856bc	-0.00832146
187	0xbc68941e	-0.01419547
188	0xbcf80b7e	-0.030278917
189	0x3cfa36d8	0.03054373
190	0x3ce4d331	0.027932735
191	0x3d1d8918	0.03846082
192	0x3c09ede4	0.008418534
193	0x3c8ba70e	0.017047431
194	0x3c79b915	0.015241881
195	0xbcad6135	-0.021164516
196	0xbc8102a6	-0.015748333
197	0xbd2bf12d	-0.04197805
198	0x3b1358c3	0.0022483326
199	0x3d179d2e	0.037015133
200	0x3d22ab60	0.039714217
201	0x3bdceef4	0.0067423526
202	0x3d22968a	0.039694346
203	0x3c7da6b2	0.015481638
204	0x3d330b57	0.043711986
205	0xbc94bca3	-0.018156355
206	0xbd37ac1f	-0.04484188
207	0x3c9077ee	0.017635312
208	0xbccfda09	-0.025372522
209	0xbd24c84d	-0.040230084
210	0xbd3ad00c	-0.045608565
211	0xbd16c064	-0.03680457
212	0xbce5af91	-0.028037818
213	0xbc8a3081	-0.016868832
214	0xbd3e05f1	-0.046392385
215	0xbd02d5a9	-0.031942043
216	0x3aa04914	0.001222881
217	0x3c729c08	0.014807709
218	0xbced5387	-0.028970493
219	0xba752536	-0.0009351553
220	0x3c55ae9f	0.013042121
221	0xbd1887bb	-0.037238818
222	0x3d017c12	0.031612463
223	0x3c23442e	0.009964986
224	0xbce91aa2	-0.028455082
225	0x3c2f67db	0.010705913
226	0xbd3035a6	-0.043019913
227	0xbc90836e	-0.017640796
228	0xbcd2ca38	-0.025731191
229	0x3d040695	0.03223284
230	0x3ca607be	0.020267364
231	0x3b25c052	0.0025291634
232	0xbd1f8897	-0.03894862
233	0x3af066df	0.0018341205
234	0xbbcf09fb	-0.0063183284
235	0x3ceb4322	0.028718535
236	0xbcdd309f	-0.027000723
237	0x3cba47c7	0.022739304
238	0x3d3f4689	0.046698127
239	0xbc9325f4	-0.017962433
240	0x3cf33c0c	0.029691719
241	0x3cfa7c17	0.030576749
242	0x3c1b2bae	0.009470863
243	0xbcca1bba	-0.024671424
244	0x3ce83d97	0.02834968
245	0xbd0c6143	-0.034272444
246	0xbb5a2084	-0.003328354
247	0xbb9c744b	-0.0047746054
248	0xbcc3f5eb	-0.023920974
249	0xbc09d0f0	-0.008411631
250	0xbd27e996	-0.04099425
251	0x3ba5d962	0.0050613144
252	0x3cce1b3f	0.025159476
253	0x3c5cefc9	0.013484904
254	0xbc38389e	-0.011243967
255	0xbd0f9ed3	-0.035063576

w_a_006 f4 [6, 768]
0	0x3d291fc9	0.04129008
1	0x3ce26878	0.027637705
2	0xbb291b29	-0.0025803542
3	0x3c8c8f81	0.017158272
4	0x3b8d6844	0.004315408
5	0xbc860ab5	-0.016362527
6	0x3ac4fdfc	0.0015029307
7	0xbd194eac	-0.037428543
8	0x3c8d9c1f	0.017286358
9	0x3cdd4e63	0.027014917
10	0xbcafd935	-0.021465877
11	0xba892e0e	-0.0010465996
12	0xbba6365c	-0.005072398
13	0x3acb8d9b	0.0015529873
14	0x3d42597b	0.047448616
15	0xbcb092e0	-0.02155441
16	0x3d534669	0.05158082
17	0x3c50f780	0.012754321
18	0x3ccf22a3	0.02528507
19	0x3cc8771a	0.024470855
20	0xbc3ff298	-0.011715554
21	0x3d2d03c4	0.04223992
22	0x3cc2a29a	0.023759175
23	0x3c76c404	0.015061382
24	0x3c85e70a	0.01634552
25	0xbcb0b74b	-0.021571776
26	0xbbec1da0	-0.00720568
27	0x3c247b9b	0.010039235
28	0x3ce1a81c	0.027545981
29	0xbc042340	-0.008065045
30	0x3c755923	0.014974865
31	0xbbe42d00	-0.006963372
32	0xbcd8155e	-0.026377376
33	0xbcf69f50	-0.030105263
34	0xbc3ff2aa	-0.01171557
35	0x3b99f620	0.00469853
36	0xbd12057b	-0.035649758
37	0xb9e446dd	-0.00043540346
38	0x3c86f43f	0.016473887
39	0x3ca16caf	0.019705145
40	0x3bdae121	0.0066796695
41	0x3cba02c5	0.022706399
42	0x3d0cfeae	0.03442257
43	0xbcafdb3e	-0.021466848
44	0x3a3465ad	0.0006881606
45	0x3cd3ee16	0.025870364
46	0xbcba7db5	-0.02276502
47	0x3d3245e1	0.043523673
48	0xbcc0476e	-0.02347156
49	0x3b52aaf7	0.003214536
50	0x3ca19d4c	0.019728325
51	0xbc7ba78e	-0.015359772
52	0xbd336a16	-0.043802343
53	0xbd01744c	-0.03160505
54	0x3c6d0eaf	0.014468833
55	0x3ca05838	0.019573316
56	0x3cb6a099	0.022293376
57	0xbd373972	-0.04473252
58	0x3d0b3c95	0.033993322
59	0xbce78893	-0.028263366
60	0x3cb189a0	0.02167207
61	0xbc899641	-0.01679528
62	0x3b9d56cf	0.004801608
63	0xbcb547b2	-0.022128914
64	0x3bc1b03f	0.0059109027
65	0x3caf5716	0.02140383
66	0xbc1e3204	-0.009655479
67	0x3d34e921	0.04416764
68	0x3bb0e47d	0.0053983317
69	0x3c20054b	0.009766887
70	0xbce29507	-0.027658952
71	0x3c137875	0.009000887
72	0x3cae2e4a	0.021262307
73	0x3cc179c4	0.023617633
74	0x3c0f57c8	0.008748956
75	0x3cf2882b	0.029605946
76	0xbc469d90	-0.012122527
77	0xba9a775d	-0.0011784841
78	0xbc85d04d	-0.016334677
79	0x3d1470b3	0.03624029
80	0xbcbbef1c	-0.022941165
81	0x3bd21bdc	0.0064120125
82	0x3d2e71d5	0.042589027
83	0x3c0f5b0d	0.008749736
84	0xbb295651	-0.0025838802
85	0xbb29e330	-0.0025922768
86	0x3d13fa28	0.03612724
87	0xbbb1324a	-0.0054076063
88	0x3cec7d38	0.028868303
89	0x3c9b6df8	0.018973336
90	0xbb3f6358	-0.00292035
91	0x3c0e2cb6	0.008677652
92	0xbce75504	-0.02823878
93	0xbd090990	-0.033456385
94	0xbcb37099	-0.021904277
95	0x3ca36293	0.019944465
96	0xbc9cfa6f	-0.019162385
97	0x3c9eb9e4	0.019375749
98	0x3d20f8cd	0.039299775
99	0x3cad92b5	0.02118812
100	0x3c2be42a	0.01049141
101	0xbc8510d8	-0.016243383
102	0x3cad7d3e	0.021177884
103	0x3cc417b1	0.023937078
104	0xbae85333	-0.0017724991
105	0xbce3caf9	-0.027806746
106	0x3bf1121f	0.0073568965
107	0x3cac1f2d	0.02101096
108	0x3c9e1970	0.019299239
109	0x3d3b5487	0.04573491
110	0x3c83b3cc	0.016076945
111	0x3d0a710f	0.033799227
112	0xbc7434e6	-0.01490519
113	0x3cd9c058	0.026580974
114	0xbd2ce02f	-0.042205986
115	0x3cb5e932	0.022205923
116	0x3d2cf427	0.04222503
117	0x3c200d8b	0.009768854
118	0x3c2c9902	0.010534527
119	0xbcf5f64d	-0.030024672
120	0xbb5a75b2	-0.0033334312
121	0x3c83c972	0.016087268
122	0xbc90cc89	-0.017675655
123	0xbc606787	-0.013696558
124	0xbcc4eaf5	-0.024037817
125	0xbc2056b3	-0.009786296
126	0xbc882e74	-0.016623713
127	0xbba08278	-0.0048983656
128	0x3c1731de	0.009228198
129	0x3cb1ac15	0.0216885
130	0x3d04acce	0.032391362
131	0x3cb6bdcb	0.022307297
132	0xbbac934d	-0.005266583
133	0xbc515565	-0.012776707
134	0xbadcde85	-0.0016850984
135	0xbc1b9cbf	-0.00949782
136	0x3c817b62	0.015805904
137	0xba29b4f5	-0.0006473803
138	0xbbd2fe24	-0.0064389873
139	0x3cd13b81	0.025541069
140	0xbc05f856	-0.008176884
141	0x3cf49d7e	0.029860254
142	0x3b21a2f1	0.002466377
143	0xbccb2149	-0.024796145
144	0x3d1b5cc6	0.037930273
145	0xbc206177	-0.009788862
146	0x3c827222	0.015923563
147	0xbb3dfb22	-0.0028988798
148	0x3c49010b	0.012268315
149	0xbcc70263	-0.02429313
150	0x3d311a44	0.04323794
151	0xbd14649a	-0.036228754
152	0xbd1995c2	-0.037496336
153	0xbc1ecb6b	-0.009692053
154	0x3c39cd58	0.011340462
155	0xbc9618f2	-0.018322442
156	0x3b01e8f5	0.001982269
157	0xbc2121af	-0.009834691
158	0x3d2368ad	0.03989475
159	0x3b81d666	0.003962326
160	0x3b1d83a8	0.0024034772
161	0x3c24ba4d	0.010054183
162	0xbca41a05	-0.020031938
163	0xbc6a97e2	-0.014318438
164	0x3a9e8723	0.0012094717
165	0xbc33f0b6	-0.010982683
166	0x3c711633	0.014714765
167	0xbd32083b	-0.04346488
168	0x3c329ad8	0.010901175
169	0xbccd799b	-0.0250824
170	0xbd020187	-0.031739738
171	0x3d1ae631	0.037817184
172	0xbb5455aa	-0.0032399693
173	0xbc3870a8	-0.011257328
174	0xbbdedbae	-0.00680109
175	0xbce78180	-0.028259993
176	0x3cd4cb30	0.025975794
177	0xbc7a71c1	-0.01528591
178	0x3c2561f0	0.010094151
179	0xbc646cc0	-0.013941944
180	0x3cf1595d	0.029461557
181	0x3cd56e3c	0.02605354
182	0xbbe4270b	-0.006962662
183	0xbd099701	-0.033591274
184	0x3cf52df5	0.02992914
185	0x3bdaca96	0.006676982
186	0x3d1db02a	0.03849808
187	0xbc0c4c52	-0.008563118
188	0x3d0f1c2e	0.034938984
189	0x3cb7d010	0.02243808
190	0x3c7c8380	0.015412211
191	0xbcf2156a	-0.029551227
192	0x3c349fd0	0.01102443
193	0x3cf7951b	0.030222466
194	0xbc881017	-0.016609235
195	0x3cd402d3	0.025880253
196	0x3cee05ab	0.029055437
197	0x3b6efeb6	0.0036467738
198	0x3ab41c02	0.0013741257
199	0xbbc5a3bf	-0.006031483
200	0xbcc92bcc	-0.024557017
201	0x3d215c40	0.039394617
202	0xbca6be44	-0.020354398
203	0x3c908659	0.017642187
204	0xbc2049b2	-0.009783195
205	0xbcd5e258	-0.026108906
206	0x3c812688	0.015765443
207	0xbba83b9c	-0.005134059
208	0x3cba5047	0.022743357
209	0xbc8ce0f6	-0.017197113
210	0x3cac457d	0.021029228
211	0x3c91ce36	0.017798524
212	0x3d0749b7	0.033029284
213	0xbcad8015	-0.021179238
214	0xbc137729	-0.009000578
215	0x3cd828da	0.026386667
216	0x3caa6884	0.02080179
217	0xbce4b0f7	-0.027916415
218	0xbcdd1ea7	-0.026992155
219	0x3d0f8f1a	0.03504858
220	0x3d14ad80	0.036298275
221	0x3cd408c7	0.025883092
222	0xbbdce6d5	-0.0067413845
223	0x3b0ce3a0	0.002149798
224	0xbc8e839a	-0.017396737
225	0x3cb5684f	0.022144465
226	0xbc8676b0	-0.016414016
227	0x3c540dde	0.012942759
228	0x3c89aecc	0.016806982
229	0x3cbabc66	0.022794914
230	0x3c99e294	0.018784799
231	0x3d2a61ee	0.0415973
232	0x3ccd651b	0.025072625
233	0x3c48493a	0.01222449
234	0x3be4acf8	0.0069786273
235	0x3c3a4277	0.0113683855
236	0xbaed9b08	-0.0018127868
237	0x3d1164c6	0.035496496
238	0xbca8c4dd	-0.020601684
239	0xbce06aba	-0.027394641
240	0x3c8a0e8c	0.01685264
241	0x3c8849b6	0.01663671
242	0xbc345c3d	-0.011008319
243	0xbcee8fe6	-0.02912135
244	0xbcc7cc12	-0.0243893
245	0xbc40402b	-0.011734049
246	0x3c41cab9	0.011828118
247	0x3bc48255	0.005996982
248	0x3c59275f	0.013254016
249	0x3cd3729e	0.02581149
250	0x3d536dde	0.05161845
251	0x3d0b5633	0.034017753
252	0x3cc7caf4	0.024388768
253	0xbcd892b1	-0.026437135
254	0xbcaccb58	-0.021093056
255	0xbc86519d	-0.016396338
